/// pipeline_option : tops-hlir-pipeline{}
/// pipeline_option_flag : 

/// IR Dump After hlir::HlirFirstPass ///


module attributes {dtu_hlir.executable_id = 1 : i64, dtu_hlir.ktype = 2 : i64, dtu_hlir.layout = "NCHW", dtu_hlir.overflow_clamp = true, dtu_hlir.target = "dorado_3pg"} {
  func @main(%arg0: tensor<2x4x64x64xf32>, %arg1: tensor<1xf32>, %arg2: tensor<2x77x1024xf32>) -> tensor<2x4x64x64xf32> {
    %0 = dtu_hlir.constant  {node_name = "conv_in.weight", node_type = "Constant"} opaque<"", "0xDEADBEEF"> : tensor<320x4x3x3xf32>
    %1 = dtu_hlir.constant  {node_name = "conv_in.bias", node_type = "Constant"} opaque<"", "0xDEADBEEF"> : tensor<320xf32>
    %2 = dtu_hlir.constant  {node_name = "time_embedding.linear_1.weight", node_type = "Constant"} opaque<"", "0xDEADBEEF"> : tensor<1280x320xf32>
    %3 = dtu_hlir.constant  {node_name = "time_embedding.linear_1.bias", node_type = "Constant"} opaque<"", "0xDEADBEEF"> : tensor<1280xf32>
    %4 = dtu_hlir.constant  {node_name = "time_embedding.linear_2.weight", node_type = "Constant"} opaque<"", "0xDEADBEEF"> : tensor<1280x1280xf32>
    %5 = dtu_hlir.constant  {node_name = "time_embedding.linear_2.bias", node_type = "Constant"} opaque<"", "0xDEADBEEF"> : tensor<1280xf32>
    %6 = dtu_hlir.constant  {node_name = "down_blocks.0.attentions.0.proj_in.bias", node_type = "Constant"} opaque<"", "0xDEADBEEF"> : tensor<320xf32>
    %7 = dtu_hlir.constant  {node_name = "down_blocks.0.attentions.0.transformer_blocks.0.attn1.to_out.0.bias", node_type = "Constant"} opaque<"", "0xDEADBEEF"> : tensor<320xf32>
    %8 = dtu_hlir.constant  {node_name = "down_blocks.0.attentions.0.transformer_blocks.0.ff.net.0.proj.bias", node_type = "Constant"} opaque<"", "0xDEADBEEF"> : tensor<2560xf32>
    %9 = dtu_hlir.constant  {node_name = "down_blocks.0.attentions.0.transformer_blocks.0.ff.net.2.bias", node_type = "Constant"} opaque<"", "0xDEADBEEF"> : tensor<320xf32>
    %10 = dtu_hlir.constant  {node_name = "down_blocks.0.attentions.0.transformer_blocks.0.attn2.to_out.0.bias", node_type = "Constant"} opaque<"", "0xDEADBEEF"> : tensor<320xf32>
    %11 = dtu_hlir.constant  {node_name = "down_blocks.0.attentions.0.transformer_blocks.0.norm1.weight", node_type = "Constant"} opaque<"", "0xDEADBEEF"> : tensor<320xf32>
    %12 = dtu_hlir.constant  {node_name = "down_blocks.0.attentions.0.transformer_blocks.0.norm1.bias", node_type = "Constant"} opaque<"", "0xDEADBEEF"> : tensor<320xf32>
    %13 = dtu_hlir.constant  {node_name = "down_blocks.0.attentions.0.transformer_blocks.0.norm2.weight", node_type = "Constant"} opaque<"", "0xDEADBEEF"> : tensor<320xf32>
    %14 = dtu_hlir.constant  {node_name = "down_blocks.0.attentions.0.transformer_blocks.0.norm2.bias", node_type = "Constant"} opaque<"", "0xDEADBEEF"> : tensor<320xf32>
    %15 = dtu_hlir.constant  {node_name = "down_blocks.0.attentions.0.transformer_blocks.0.norm3.weight", node_type = "Constant"} opaque<"", "0xDEADBEEF"> : tensor<320xf32>
    %16 = dtu_hlir.constant  {node_name = "down_blocks.0.attentions.0.transformer_blocks.0.norm3.bias", node_type = "Constant"} opaque<"", "0xDEADBEEF"> : tensor<320xf32>
    %17 = dtu_hlir.constant  {node_name = "down_blocks.0.attentions.0.proj_out.bias", node_type = "Constant"} opaque<"", "0xDEADBEEF"> : tensor<320xf32>
    %18 = dtu_hlir.constant  {node_name = "down_blocks.0.attentions.1.proj_in.bias", node_type = "Constant"} opaque<"", "0xDEADBEEF"> : tensor<320xf32>
    %19 = dtu_hlir.constant  {node_name = "down_blocks.0.attentions.1.transformer_blocks.0.attn1.to_out.0.bias", node_type = "Constant"} opaque<"", "0xDEADBEEF"> : tensor<320xf32>
    %20 = dtu_hlir.constant  {node_name = "down_blocks.0.attentions.1.transformer_blocks.0.ff.net.0.proj.bias", node_type = "Constant"} opaque<"", "0xDEADBEEF"> : tensor<2560xf32>
    %21 = dtu_hlir.constant  {node_name = "down_blocks.0.attentions.1.transformer_blocks.0.ff.net.2.bias", node_type = "Constant"} opaque<"", "0xDEADBEEF"> : tensor<320xf32>
    %22 = dtu_hlir.constant  {node_name = "down_blocks.0.attentions.1.transformer_blocks.0.attn2.to_out.0.bias", node_type = "Constant"} opaque<"", "0xDEADBEEF"> : tensor<320xf32>
    %23 = dtu_hlir.constant  {node_name = "down_blocks.0.attentions.1.transformer_blocks.0.norm1.weight", node_type = "Constant"} opaque<"", "0xDEADBEEF"> : tensor<320xf32>
    %24 = dtu_hlir.constant  {node_name = "down_blocks.0.attentions.1.transformer_blocks.0.norm1.bias", node_type = "Constant"} opaque<"", "0xDEADBEEF"> : tensor<320xf32>
    %25 = dtu_hlir.constant  {node_name = "down_blocks.0.attentions.1.transformer_blocks.0.norm2.weight", node_type = "Constant"} opaque<"", "0xDEADBEEF"> : tensor<320xf32>
    %26 = dtu_hlir.constant  {node_name = "down_blocks.0.attentions.1.transformer_blocks.0.norm2.bias", node_type = "Constant"} opaque<"", "0xDEADBEEF"> : tensor<320xf32>
    %27 = dtu_hlir.constant  {node_name = "down_blocks.0.attentions.1.transformer_blocks.0.norm3.weight", node_type = "Constant"} opaque<"", "0xDEADBEEF"> : tensor<320xf32>
    %28 = dtu_hlir.constant  {node_name = "down_blocks.0.attentions.1.transformer_blocks.0.norm3.bias", node_type = "Constant"} opaque<"", "0xDEADBEEF"> : tensor<320xf32>
    %29 = dtu_hlir.constant  {node_name = "down_blocks.0.attentions.1.proj_out.bias", node_type = "Constant"} opaque<"", "0xDEADBEEF"> : tensor<320xf32>
    %30 = dtu_hlir.constant  {node_name = "down_blocks.0.resnets.0.conv1.weight", node_type = "Constant"} opaque<"", "0xDEADBEEF"> : tensor<320x320x3x3xf32>
    %31 = dtu_hlir.constant  {node_name = "down_blocks.0.resnets.0.conv1.bias", node_type = "Constant"} opaque<"", "0xDEADBEEF"> : tensor<320xf32>
    %32 = dtu_hlir.constant  {node_name = "down_blocks.0.resnets.0.time_emb_proj.weight", node_type = "Constant"} opaque<"", "0xDEADBEEF"> : tensor<320x1280xf32>
    %33 = dtu_hlir.constant  {node_name = "down_blocks.0.resnets.0.time_emb_proj.bias", node_type = "Constant"} opaque<"", "0xDEADBEEF"> : tensor<320xf32>
    %34 = dtu_hlir.constant  {node_name = "down_blocks.0.resnets.0.conv2.weight", node_type = "Constant"} opaque<"", "0xDEADBEEF"> : tensor<320x320x3x3xf32>
    %35 = dtu_hlir.constant  {node_name = "down_blocks.0.resnets.0.conv2.bias", node_type = "Constant"} opaque<"", "0xDEADBEEF"> : tensor<320xf32>
    %36 = dtu_hlir.constant  {node_name = "down_blocks.0.resnets.1.conv1.weight", node_type = "Constant"} opaque<"", "0xDEADBEEF"> : tensor<320x320x3x3xf32>
    %37 = dtu_hlir.constant  {node_name = "down_blocks.0.resnets.1.conv1.bias", node_type = "Constant"} opaque<"", "0xDEADBEEF"> : tensor<320xf32>
    %38 = dtu_hlir.constant  {node_name = "down_blocks.0.resnets.1.time_emb_proj.weight", node_type = "Constant"} opaque<"", "0xDEADBEEF"> : tensor<320x1280xf32>
    %39 = dtu_hlir.constant  {node_name = "down_blocks.0.resnets.1.time_emb_proj.bias", node_type = "Constant"} opaque<"", "0xDEADBEEF"> : tensor<320xf32>
    %40 = dtu_hlir.constant  {node_name = "down_blocks.0.resnets.1.conv2.weight", node_type = "Constant"} opaque<"", "0xDEADBEEF"> : tensor<320x320x3x3xf32>
    %41 = dtu_hlir.constant  {node_name = "down_blocks.0.resnets.1.conv2.bias", node_type = "Constant"} opaque<"", "0xDEADBEEF"> : tensor<320xf32>
    %42 = dtu_hlir.constant  {node_name = "down_blocks.0.downsamplers.0.conv.weight", node_type = "Constant"} opaque<"", "0xDEADBEEF"> : tensor<320x320x3x3xf32>
    %43 = dtu_hlir.constant  {node_name = "down_blocks.0.downsamplers.0.conv.bias", node_type = "Constant"} opaque<"", "0xDEADBEEF"> : tensor<320xf32>
    %44 = dtu_hlir.constant  {node_name = "down_blocks.1.attentions.0.proj_in.bias", node_type = "Constant"} opaque<"", "0xDEADBEEF"> : tensor<640xf32>
    %45 = dtu_hlir.constant  {node_name = "down_blocks.1.attentions.0.transformer_blocks.0.attn1.to_out.0.bias", node_type = "Constant"} opaque<"", "0xDEADBEEF"> : tensor<640xf32>
    %46 = dtu_hlir.constant  {node_name = "down_blocks.1.attentions.0.transformer_blocks.0.ff.net.0.proj.bias", node_type = "Constant"} opaque<"", "0xDEADBEEF"> : tensor<5120xf32>
    %47 = dtu_hlir.constant  {node_name = "down_blocks.1.attentions.0.transformer_blocks.0.ff.net.2.bias", node_type = "Constant"} opaque<"", "0xDEADBEEF"> : tensor<640xf32>
    %48 = dtu_hlir.constant  {node_name = "down_blocks.1.attentions.0.transformer_blocks.0.attn2.to_out.0.bias", node_type = "Constant"} opaque<"", "0xDEADBEEF"> : tensor<640xf32>
    %49 = dtu_hlir.constant  {node_name = "down_blocks.1.attentions.0.transformer_blocks.0.norm1.weight", node_type = "Constant"} opaque<"", "0xDEADBEEF"> : tensor<640xf32>
    %50 = dtu_hlir.constant  {node_name = "down_blocks.1.attentions.0.transformer_blocks.0.norm1.bias", node_type = "Constant"} opaque<"", "0xDEADBEEF"> : tensor<640xf32>
    %51 = dtu_hlir.constant  {node_name = "down_blocks.1.attentions.0.transformer_blocks.0.norm2.weight", node_type = "Constant"} opaque<"", "0xDEADBEEF"> : tensor<640xf32>
    %52 = dtu_hlir.constant  {node_name = "down_blocks.1.attentions.0.transformer_blocks.0.norm2.bias", node_type = "Constant"} opaque<"", "0xDEADBEEF"> : tensor<640xf32>
    %53 = dtu_hlir.constant  {node_name = "down_blocks.1.attentions.0.transformer_blocks.0.norm3.weight", node_type = "Constant"} opaque<"", "0xDEADBEEF"> : tensor<640xf32>
    %54 = dtu_hlir.constant  {node_name = "down_blocks.1.attentions.0.transformer_blocks.0.norm3.bias", node_type = "Constant"} opaque<"", "0xDEADBEEF"> : tensor<640xf32>
    %55 = dtu_hlir.constant  {node_name = "down_blocks.1.attentions.0.proj_out.bias", node_type = "Constant"} opaque<"", "0xDEADBEEF"> : tensor<640xf32>
    %56 = dtu_hlir.constant  {node_name = "down_blocks.1.attentions.1.proj_in.bias", node_type = "Constant"} opaque<"", "0xDEADBEEF"> : tensor<640xf32>
    %57 = dtu_hlir.constant  {node_name = "down_blocks.1.attentions.1.transformer_blocks.0.attn1.to_out.0.bias", node_type = "Constant"} opaque<"", "0xDEADBEEF"> : tensor<640xf32>
    %58 = dtu_hlir.constant  {node_name = "down_blocks.1.attentions.1.transformer_blocks.0.ff.net.0.proj.bias", node_type = "Constant"} opaque<"", "0xDEADBEEF"> : tensor<5120xf32>
    %59 = dtu_hlir.constant  {node_name = "down_blocks.1.attentions.1.transformer_blocks.0.ff.net.2.bias", node_type = "Constant"} opaque<"", "0xDEADBEEF"> : tensor<640xf32>
    %60 = dtu_hlir.constant  {node_name = "down_blocks.1.attentions.1.transformer_blocks.0.attn2.to_out.0.bias", node_type = "Constant"} opaque<"", "0xDEADBEEF"> : tensor<640xf32>
    %61 = dtu_hlir.constant  {node_name = "down_blocks.1.attentions.1.transformer_blocks.0.norm1.weight", node_type = "Constant"} opaque<"", "0xDEADBEEF"> : tensor<640xf32>
    %62 = dtu_hlir.constant  {node_name = "down_blocks.1.attentions.1.transformer_blocks.0.norm1.bias", node_type = "Constant"} opaque<"", "0xDEADBEEF"> : tensor<640xf32>
    %63 = dtu_hlir.constant  {node_name = "down_blocks.1.attentions.1.transformer_blocks.0.norm2.weight", node_type = "Constant"} opaque<"", "0xDEADBEEF"> : tensor<640xf32>
    %64 = dtu_hlir.constant  {node_name = "down_blocks.1.attentions.1.transformer_blocks.0.norm2.bias", node_type = "Constant"} opaque<"", "0xDEADBEEF"> : tensor<640xf32>
    %65 = dtu_hlir.constant  {node_name = "down_blocks.1.attentions.1.transformer_blocks.0.norm3.weight", node_type = "Constant"} opaque<"", "0xDEADBEEF"> : tensor<640xf32>
    %66 = dtu_hlir.constant  {node_name = "down_blocks.1.attentions.1.transformer_blocks.0.norm3.bias", node_type = "Constant"} opaque<"", "0xDEADBEEF"> : tensor<640xf32>
    %67 = dtu_hlir.constant  {node_name = "down_blocks.1.attentions.1.proj_out.bias", node_type = "Constant"} opaque<"", "0xDEADBEEF"> : tensor<640xf32>
    %68 = dtu_hlir.constant  {node_name = "down_blocks.1.resnets.0.conv1.weight", node_type = "Constant"} opaque<"", "0xDEADBEEF"> : tensor<640x320x3x3xf32>
    %69 = dtu_hlir.constant  {node_name = "down_blocks.1.resnets.0.conv1.bias", node_type = "Constant"} opaque<"", "0xDEADBEEF"> : tensor<640xf32>
    %70 = dtu_hlir.constant  {node_name = "down_blocks.1.resnets.0.time_emb_proj.weight", node_type = "Constant"} opaque<"", "0xDEADBEEF"> : tensor<640x1280xf32>
    %71 = dtu_hlir.constant  {node_name = "down_blocks.1.resnets.0.time_emb_proj.bias", node_type = "Constant"} opaque<"", "0xDEADBEEF"> : tensor<640xf32>
    %72 = dtu_hlir.constant  {node_name = "down_blocks.1.resnets.0.conv2.weight", node_type = "Constant"} opaque<"", "0xDEADBEEF"> : tensor<640x640x3x3xf32>
    %73 = dtu_hlir.constant  {node_name = "down_blocks.1.resnets.0.conv2.bias", node_type = "Constant"} opaque<"", "0xDEADBEEF"> : tensor<640xf32>
    %74 = dtu_hlir.constant  {node_name = "down_blocks.1.resnets.0.conv_shortcut.weight", node_type = "Constant"} opaque<"", "0xDEADBEEF"> : tensor<640x320x1x1xf32>
    %75 = dtu_hlir.constant  {node_name = "down_blocks.1.resnets.0.conv_shortcut.bias", node_type = "Constant"} opaque<"", "0xDEADBEEF"> : tensor<640xf32>
    %76 = dtu_hlir.constant  {node_name = "down_blocks.1.resnets.1.conv1.weight", node_type = "Constant"} opaque<"", "0xDEADBEEF"> : tensor<640x640x3x3xf32>
    %77 = dtu_hlir.constant  {node_name = "down_blocks.1.resnets.1.conv1.bias", node_type = "Constant"} opaque<"", "0xDEADBEEF"> : tensor<640xf32>
    %78 = dtu_hlir.constant  {node_name = "down_blocks.1.resnets.1.time_emb_proj.weight", node_type = "Constant"} opaque<"", "0xDEADBEEF"> : tensor<640x1280xf32>
    %79 = dtu_hlir.constant  {node_name = "down_blocks.1.resnets.1.time_emb_proj.bias", node_type = "Constant"} opaque<"", "0xDEADBEEF"> : tensor<640xf32>
    %80 = dtu_hlir.constant  {node_name = "down_blocks.1.resnets.1.conv2.weight", node_type = "Constant"} opaque<"", "0xDEADBEEF"> : tensor<640x640x3x3xf32>
    %81 = dtu_hlir.constant  {node_name = "down_blocks.1.resnets.1.conv2.bias", node_type = "Constant"} opaque<"", "0xDEADBEEF"> : tensor<640xf32>
    %82 = dtu_hlir.constant  {node_name = "down_blocks.1.downsamplers.0.conv.weight", node_type = "Constant"} opaque<"", "0xDEADBEEF"> : tensor<640x640x3x3xf32>
    %83 = dtu_hlir.constant  {node_name = "down_blocks.1.downsamplers.0.conv.bias", node_type = "Constant"} opaque<"", "0xDEADBEEF"> : tensor<640xf32>
    %84 = dtu_hlir.constant  {node_name = "down_blocks.2.attentions.0.proj_in.bias", node_type = "Constant"} opaque<"", "0xDEADBEEF"> : tensor<1280xf32>
    %85 = dtu_hlir.constant  {node_name = "down_blocks.2.attentions.0.transformer_blocks.0.attn1.to_out.0.bias", node_type = "Constant"} opaque<"", "0xDEADBEEF"> : tensor<1280xf32>
    %86 = dtu_hlir.constant  {node_name = "down_blocks.2.attentions.0.transformer_blocks.0.ff.net.0.proj.bias", node_type = "Constant"} opaque<"", "0xDEADBEEF"> : tensor<10240xf32>
    %87 = dtu_hlir.constant  {node_name = "down_blocks.2.attentions.0.transformer_blocks.0.ff.net.2.bias", node_type = "Constant"} opaque<"", "0xDEADBEEF"> : tensor<1280xf32>
    %88 = dtu_hlir.constant  {node_name = "down_blocks.2.attentions.0.transformer_blocks.0.attn2.to_out.0.bias", node_type = "Constant"} opaque<"", "0xDEADBEEF"> : tensor<1280xf32>
    %89 = dtu_hlir.constant  {node_name = "down_blocks.2.attentions.0.transformer_blocks.0.norm1.weight", node_type = "Constant"} opaque<"", "0xDEADBEEF"> : tensor<1280xf32>
    %90 = dtu_hlir.constant  {node_name = "down_blocks.2.attentions.0.transformer_blocks.0.norm1.bias", node_type = "Constant"} opaque<"", "0xDEADBEEF"> : tensor<1280xf32>
    %91 = dtu_hlir.constant  {node_name = "down_blocks.2.attentions.0.transformer_blocks.0.norm2.weight", node_type = "Constant"} opaque<"", "0xDEADBEEF"> : tensor<1280xf32>
    %92 = dtu_hlir.constant  {node_name = "down_blocks.2.attentions.0.transformer_blocks.0.norm2.bias", node_type = "Constant"} opaque<"", "0xDEADBEEF"> : tensor<1280xf32>
    %93 = dtu_hlir.constant  {node_name = "down_blocks.2.attentions.0.transformer_blocks.0.norm3.weight", node_type = "Constant"} opaque<"", "0xDEADBEEF"> : tensor<1280xf32>
    %94 = dtu_hlir.constant  {node_name = "down_blocks.2.attentions.0.transformer_blocks.0.norm3.bias", node_type = "Constant"} opaque<"", "0xDEADBEEF"> : tensor<1280xf32>
    %95 = dtu_hlir.constant  {node_name = "down_blocks.2.attentions.0.proj_out.bias", node_type = "Constant"} opaque<"", "0xDEADBEEF"> : tensor<1280xf32>
    %96 = dtu_hlir.constant  {node_name = "down_blocks.2.attentions.1.proj_in.bias", node_type = "Constant"} opaque<"", "0xDEADBEEF"> : tensor<1280xf32>
    %97 = dtu_hlir.constant  {node_name = "down_blocks.2.attentions.1.transformer_blocks.0.attn1.to_out.0.bias", node_type = "Constant"} opaque<"", "0xDEADBEEF"> : tensor<1280xf32>
    %98 = dtu_hlir.constant  {node_name = "down_blocks.2.attentions.1.transformer_blocks.0.ff.net.0.proj.bias", node_type = "Constant"} opaque<"", "0xDEADBEEF"> : tensor<10240xf32>
    %99 = dtu_hlir.constant  {node_name = "down_blocks.2.attentions.1.transformer_blocks.0.ff.net.2.bias", node_type = "Constant"} opaque<"", "0xDEADBEEF"> : tensor<1280xf32>
    %100 = dtu_hlir.constant  {node_name = "down_blocks.2.attentions.1.transformer_blocks.0.attn2.to_out.0.bias", node_type = "Constant"} opaque<"", "0xDEADBEEF"> : tensor<1280xf32>
    %101 = dtu_hlir.constant  {node_name = "down_blocks.2.attentions.1.transformer_blocks.0.norm1.weight", node_type = "Constant"} opaque<"", "0xDEADBEEF"> : tensor<1280xf32>
    %102 = dtu_hlir.constant  {node_name = "down_blocks.2.attentions.1.transformer_blocks.0.norm1.bias", node_type = "Constant"} opaque<"", "0xDEADBEEF"> : tensor<1280xf32>
    %103 = dtu_hlir.constant  {node_name = "down_blocks.2.attentions.1.transformer_blocks.0.norm2.weight", node_type = "Constant"} opaque<"", "0xDEADBEEF"> : tensor<1280xf32>
    %104 = dtu_hlir.constant  {node_name = "down_blocks.2.attentions.1.transformer_blocks.0.norm2.bias", node_type = "Constant"} opaque<"", "0xDEADBEEF"> : tensor<1280xf32>
    %105 = dtu_hlir.constant  {node_name = "down_blocks.2.attentions.1.transformer_blocks.0.norm3.weight", node_type = "Constant"} opaque<"", "0xDEADBEEF"> : tensor<1280xf32>
    %106 = dtu_hlir.constant  {node_name = "down_blocks.2.attentions.1.transformer_blocks.0.norm3.bias", node_type = "Constant"} opaque<"", "0xDEADBEEF"> : tensor<1280xf32>
    %107 = dtu_hlir.constant  {node_name = "down_blocks.2.attentions.1.proj_out.bias", node_type = "Constant"} opaque<"", "0xDEADBEEF"> : tensor<1280xf32>
    %108 = dtu_hlir.constant  {node_name = "down_blocks.2.resnets.0.conv1.weight", node_type = "Constant"} opaque<"", "0xDEADBEEF"> : tensor<1280x640x3x3xf32>
    %109 = dtu_hlir.constant  {node_name = "down_blocks.2.resnets.0.conv1.bias", node_type = "Constant"} opaque<"", "0xDEADBEEF"> : tensor<1280xf32>
    %110 = dtu_hlir.constant  {node_name = "down_blocks.2.resnets.0.time_emb_proj.weight", node_type = "Constant"} opaque<"", "0xDEADBEEF"> : tensor<1280x1280xf32>
    %111 = dtu_hlir.constant  {node_name = "down_blocks.2.resnets.0.time_emb_proj.bias", node_type = "Constant"} opaque<"", "0xDEADBEEF"> : tensor<1280xf32>
    %112 = dtu_hlir.constant  {node_name = "down_blocks.2.resnets.0.conv2.weight", node_type = "Constant"} opaque<"", "0xDEADBEEF"> : tensor<1280x1280x3x3xf32>
    %113 = dtu_hlir.constant  {node_name = "down_blocks.2.resnets.0.conv2.bias", node_type = "Constant"} opaque<"", "0xDEADBEEF"> : tensor<1280xf32>
    %114 = dtu_hlir.constant  {node_name = "down_blocks.2.resnets.0.conv_shortcut.weight", node_type = "Constant"} opaque<"", "0xDEADBEEF"> : tensor<1280x640x1x1xf32>
    %115 = dtu_hlir.constant  {node_name = "down_blocks.2.resnets.0.conv_shortcut.bias", node_type = "Constant"} opaque<"", "0xDEADBEEF"> : tensor<1280xf32>
    %116 = dtu_hlir.constant  {node_name = "down_blocks.2.resnets.1.conv1.weight", node_type = "Constant"} opaque<"", "0xDEADBEEF"> : tensor<1280x1280x3x3xf32>
    %117 = dtu_hlir.constant  {node_name = "down_blocks.2.resnets.1.conv1.bias", node_type = "Constant"} opaque<"", "0xDEADBEEF"> : tensor<1280xf32>
    %118 = dtu_hlir.constant  {node_name = "down_blocks.2.resnets.1.time_emb_proj.weight", node_type = "Constant"} opaque<"", "0xDEADBEEF"> : tensor<1280x1280xf32>
    %119 = dtu_hlir.constant  {node_name = "down_blocks.2.resnets.1.time_emb_proj.bias", node_type = "Constant"} opaque<"", "0xDEADBEEF"> : tensor<1280xf32>
    %120 = dtu_hlir.constant  {node_name = "down_blocks.2.resnets.1.conv2.weight", node_type = "Constant"} opaque<"", "0xDEADBEEF"> : tensor<1280x1280x3x3xf32>
    %121 = dtu_hlir.constant  {node_name = "down_blocks.2.resnets.1.conv2.bias", node_type = "Constant"} opaque<"", "0xDEADBEEF"> : tensor<1280xf32>
    %122 = dtu_hlir.constant  {node_name = "down_blocks.2.downsamplers.0.conv.weight", node_type = "Constant"} opaque<"", "0xDEADBEEF"> : tensor<1280x1280x3x3xf32>
    %123 = dtu_hlir.constant  {node_name = "down_blocks.2.downsamplers.0.conv.bias", node_type = "Constant"} opaque<"", "0xDEADBEEF"> : tensor<1280xf32>
    %124 = dtu_hlir.constant  {node_name = "down_blocks.3.resnets.0.conv1.weight", node_type = "Constant"} opaque<"", "0xDEADBEEF"> : tensor<1280x1280x3x3xf32>
    %125 = dtu_hlir.constant  {node_name = "down_blocks.3.resnets.0.conv1.bias", node_type = "Constant"} opaque<"", "0xDEADBEEF"> : tensor<1280xf32>
    %126 = dtu_hlir.constant  {node_name = "down_blocks.3.resnets.0.time_emb_proj.weight", node_type = "Constant"} opaque<"", "0xDEADBEEF"> : tensor<1280x1280xf32>
    %127 = dtu_hlir.constant  {node_name = "down_blocks.3.resnets.0.time_emb_proj.bias", node_type = "Constant"} opaque<"", "0xDEADBEEF"> : tensor<1280xf32>
    %128 = dtu_hlir.constant  {node_name = "down_blocks.3.resnets.0.conv2.weight", node_type = "Constant"} opaque<"", "0xDEADBEEF"> : tensor<1280x1280x3x3xf32>
    %129 = dtu_hlir.constant  {node_name = "down_blocks.3.resnets.0.conv2.bias", node_type = "Constant"} opaque<"", "0xDEADBEEF"> : tensor<1280xf32>
    %130 = dtu_hlir.constant  {node_name = "down_blocks.3.resnets.1.conv1.weight", node_type = "Constant"} opaque<"", "0xDEADBEEF"> : tensor<1280x1280x3x3xf32>
    %131 = dtu_hlir.constant  {node_name = "down_blocks.3.resnets.1.conv1.bias", node_type = "Constant"} opaque<"", "0xDEADBEEF"> : tensor<1280xf32>
    %132 = dtu_hlir.constant  {node_name = "down_blocks.3.resnets.1.time_emb_proj.weight", node_type = "Constant"} opaque<"", "0xDEADBEEF"> : tensor<1280x1280xf32>
    %133 = dtu_hlir.constant  {node_name = "down_blocks.3.resnets.1.time_emb_proj.bias", node_type = "Constant"} opaque<"", "0xDEADBEEF"> : tensor<1280xf32>
    %134 = dtu_hlir.constant  {node_name = "down_blocks.3.resnets.1.conv2.weight", node_type = "Constant"} opaque<"", "0xDEADBEEF"> : tensor<1280x1280x3x3xf32>
    %135 = dtu_hlir.constant  {node_name = "down_blocks.3.resnets.1.conv2.bias", node_type = "Constant"} opaque<"", "0xDEADBEEF"> : tensor<1280xf32>
    %136 = dtu_hlir.constant  {node_name = "up_blocks.0.resnets.0.conv1.weight", node_type = "Constant"} opaque<"", "0xDEADBEEF"> : tensor<1280x2560x3x3xf32>
    %137 = dtu_hlir.constant  {node_name = "up_blocks.0.resnets.0.conv1.bias", node_type = "Constant"} opaque<"", "0xDEADBEEF"> : tensor<1280xf32>
    %138 = dtu_hlir.constant  {node_name = "up_blocks.0.resnets.0.time_emb_proj.weight", node_type = "Constant"} opaque<"", "0xDEADBEEF"> : tensor<1280x1280xf32>
    %139 = dtu_hlir.constant  {node_name = "up_blocks.0.resnets.0.time_emb_proj.bias", node_type = "Constant"} opaque<"", "0xDEADBEEF"> : tensor<1280xf32>
    %140 = dtu_hlir.constant  {node_name = "up_blocks.0.resnets.0.conv2.weight", node_type = "Constant"} opaque<"", "0xDEADBEEF"> : tensor<1280x1280x3x3xf32>
    %141 = dtu_hlir.constant  {node_name = "up_blocks.0.resnets.0.conv2.bias", node_type = "Constant"} opaque<"", "0xDEADBEEF"> : tensor<1280xf32>
    %142 = dtu_hlir.constant  {node_name = "up_blocks.0.resnets.0.conv_shortcut.weight", node_type = "Constant"} opaque<"", "0xDEADBEEF"> : tensor<1280x2560x1x1xf32>
    %143 = dtu_hlir.constant  {node_name = "up_blocks.0.resnets.0.conv_shortcut.bias", node_type = "Constant"} opaque<"", "0xDEADBEEF"> : tensor<1280xf32>
    %144 = dtu_hlir.constant  {node_name = "up_blocks.0.resnets.1.conv1.weight", node_type = "Constant"} opaque<"", "0xDEADBEEF"> : tensor<1280x2560x3x3xf32>
    %145 = dtu_hlir.constant  {node_name = "up_blocks.0.resnets.1.conv1.bias", node_type = "Constant"} opaque<"", "0xDEADBEEF"> : tensor<1280xf32>
    %146 = dtu_hlir.constant  {node_name = "up_blocks.0.resnets.1.time_emb_proj.weight", node_type = "Constant"} opaque<"", "0xDEADBEEF"> : tensor<1280x1280xf32>
    %147 = dtu_hlir.constant  {node_name = "up_blocks.0.resnets.1.time_emb_proj.bias", node_type = "Constant"} opaque<"", "0xDEADBEEF"> : tensor<1280xf32>
    %148 = dtu_hlir.constant  {node_name = "up_blocks.0.resnets.1.conv2.weight", node_type = "Constant"} opaque<"", "0xDEADBEEF"> : tensor<1280x1280x3x3xf32>
    %149 = dtu_hlir.constant  {node_name = "up_blocks.0.resnets.1.conv2.bias", node_type = "Constant"} opaque<"", "0xDEADBEEF"> : tensor<1280xf32>
    %150 = dtu_hlir.constant  {node_name = "up_blocks.0.resnets.1.conv_shortcut.weight", node_type = "Constant"} opaque<"", "0xDEADBEEF"> : tensor<1280x2560x1x1xf32>
    %151 = dtu_hlir.constant  {node_name = "up_blocks.0.resnets.1.conv_shortcut.bias", node_type = "Constant"} opaque<"", "0xDEADBEEF"> : tensor<1280xf32>
    %152 = dtu_hlir.constant  {node_name = "up_blocks.0.resnets.2.conv1.weight", node_type = "Constant"} opaque<"", "0xDEADBEEF"> : tensor<1280x2560x3x3xf32>
    %153 = dtu_hlir.constant  {node_name = "up_blocks.0.resnets.2.conv1.bias", node_type = "Constant"} opaque<"", "0xDEADBEEF"> : tensor<1280xf32>
    %154 = dtu_hlir.constant  {node_name = "up_blocks.0.resnets.2.time_emb_proj.weight", node_type = "Constant"} opaque<"", "0xDEADBEEF"> : tensor<1280x1280xf32>
    %155 = dtu_hlir.constant  {node_name = "up_blocks.0.resnets.2.time_emb_proj.bias", node_type = "Constant"} opaque<"", "0xDEADBEEF"> : tensor<1280xf32>
    %156 = dtu_hlir.constant  {node_name = "up_blocks.0.resnets.2.conv2.weight", node_type = "Constant"} opaque<"", "0xDEADBEEF"> : tensor<1280x1280x3x3xf32>
    %157 = dtu_hlir.constant  {node_name = "up_blocks.0.resnets.2.conv2.bias", node_type = "Constant"} opaque<"", "0xDEADBEEF"> : tensor<1280xf32>
    %158 = dtu_hlir.constant  {node_name = "up_blocks.0.resnets.2.conv_shortcut.weight", node_type = "Constant"} opaque<"", "0xDEADBEEF"> : tensor<1280x2560x1x1xf32>
    %159 = dtu_hlir.constant  {node_name = "up_blocks.0.resnets.2.conv_shortcut.bias", node_type = "Constant"} opaque<"", "0xDEADBEEF"> : tensor<1280xf32>
    %160 = dtu_hlir.constant  {node_name = "up_blocks.0.upsamplers.0.conv.weight", node_type = "Constant"} opaque<"", "0xDEADBEEF"> : tensor<1280x1280x3x3xf32>
    %161 = dtu_hlir.constant  {node_name = "up_blocks.0.upsamplers.0.conv.bias", node_type = "Constant"} opaque<"", "0xDEADBEEF"> : tensor<1280xf32>
    %162 = dtu_hlir.constant  {node_name = "up_blocks.1.attentions.0.proj_in.bias", node_type = "Constant"} opaque<"", "0xDEADBEEF"> : tensor<1280xf32>
    %163 = dtu_hlir.constant  {node_name = "up_blocks.1.attentions.0.transformer_blocks.0.attn1.to_out.0.bias", node_type = "Constant"} opaque<"", "0xDEADBEEF"> : tensor<1280xf32>
    %164 = dtu_hlir.constant  {node_name = "up_blocks.1.attentions.0.transformer_blocks.0.ff.net.0.proj.bias", node_type = "Constant"} opaque<"", "0xDEADBEEF"> : tensor<10240xf32>
    %165 = dtu_hlir.constant  {node_name = "up_blocks.1.attentions.0.transformer_blocks.0.ff.net.2.bias", node_type = "Constant"} opaque<"", "0xDEADBEEF"> : tensor<1280xf32>
    %166 = dtu_hlir.constant  {node_name = "up_blocks.1.attentions.0.transformer_blocks.0.attn2.to_out.0.bias", node_type = "Constant"} opaque<"", "0xDEADBEEF"> : tensor<1280xf32>
    %167 = dtu_hlir.constant  {node_name = "up_blocks.1.attentions.0.transformer_blocks.0.norm1.weight", node_type = "Constant"} opaque<"", "0xDEADBEEF"> : tensor<1280xf32>
    %168 = dtu_hlir.constant  {node_name = "up_blocks.1.attentions.0.transformer_blocks.0.norm1.bias", node_type = "Constant"} opaque<"", "0xDEADBEEF"> : tensor<1280xf32>
    %169 = dtu_hlir.constant  {node_name = "up_blocks.1.attentions.0.transformer_blocks.0.norm2.weight", node_type = "Constant"} opaque<"", "0xDEADBEEF"> : tensor<1280xf32>
    %170 = dtu_hlir.constant  {node_name = "up_blocks.1.attentions.0.transformer_blocks.0.norm2.bias", node_type = "Constant"} opaque<"", "0xDEADBEEF"> : tensor<1280xf32>
    %171 = dtu_hlir.constant  {node_name = "up_blocks.1.attentions.0.transformer_blocks.0.norm3.weight", node_type = "Constant"} opaque<"", "0xDEADBEEF"> : tensor<1280xf32>
    %172 = dtu_hlir.constant  {node_name = "up_blocks.1.attentions.0.transformer_blocks.0.norm3.bias", node_type = "Constant"} opaque<"", "0xDEADBEEF"> : tensor<1280xf32>
    %173 = dtu_hlir.constant  {node_name = "up_blocks.1.attentions.0.proj_out.bias", node_type = "Constant"} opaque<"", "0xDEADBEEF"> : tensor<1280xf32>
    %174 = dtu_hlir.constant  {node_name = "up_blocks.1.attentions.1.proj_in.bias", node_type = "Constant"} opaque<"", "0xDEADBEEF"> : tensor<1280xf32>
    %175 = dtu_hlir.constant  {node_name = "up_blocks.1.attentions.1.transformer_blocks.0.attn1.to_out.0.bias", node_type = "Constant"} opaque<"", "0xDEADBEEF"> : tensor<1280xf32>
    %176 = dtu_hlir.constant  {node_name = "up_blocks.1.attentions.1.transformer_blocks.0.ff.net.0.proj.bias", node_type = "Constant"} opaque<"", "0xDEADBEEF"> : tensor<10240xf32>
    %177 = dtu_hlir.constant  {node_name = "up_blocks.1.attentions.1.transformer_blocks.0.ff.net.2.bias", node_type = "Constant"} opaque<"", "0xDEADBEEF"> : tensor<1280xf32>
    %178 = dtu_hlir.constant  {node_name = "up_blocks.1.attentions.1.transformer_blocks.0.attn2.to_out.0.bias", node_type = "Constant"} opaque<"", "0xDEADBEEF"> : tensor<1280xf32>
    %179 = dtu_hlir.constant  {node_name = "up_blocks.1.attentions.1.transformer_blocks.0.norm1.weight", node_type = "Constant"} opaque<"", "0xDEADBEEF"> : tensor<1280xf32>
    %180 = dtu_hlir.constant  {node_name = "up_blocks.1.attentions.1.transformer_blocks.0.norm1.bias", node_type = "Constant"} opaque<"", "0xDEADBEEF"> : tensor<1280xf32>
    %181 = dtu_hlir.constant  {node_name = "up_blocks.1.attentions.1.transformer_blocks.0.norm2.weight", node_type = "Constant"} opaque<"", "0xDEADBEEF"> : tensor<1280xf32>
    %182 = dtu_hlir.constant  {node_name = "up_blocks.1.attentions.1.transformer_blocks.0.norm2.bias", node_type = "Constant"} opaque<"", "0xDEADBEEF"> : tensor<1280xf32>
    %183 = dtu_hlir.constant  {node_name = "up_blocks.1.attentions.1.transformer_blocks.0.norm3.weight", node_type = "Constant"} opaque<"", "0xDEADBEEF"> : tensor<1280xf32>
    %184 = dtu_hlir.constant  {node_name = "up_blocks.1.attentions.1.transformer_blocks.0.norm3.bias", node_type = "Constant"} opaque<"", "0xDEADBEEF"> : tensor<1280xf32>
    %185 = dtu_hlir.constant  {node_name = "up_blocks.1.attentions.1.proj_out.bias", node_type = "Constant"} opaque<"", "0xDEADBEEF"> : tensor<1280xf32>
    %186 = dtu_hlir.constant  {node_name = "up_blocks.1.attentions.2.proj_in.bias", node_type = "Constant"} opaque<"", "0xDEADBEEF"> : tensor<1280xf32>
    %187 = dtu_hlir.constant  {node_name = "up_blocks.1.attentions.2.transformer_blocks.0.attn1.to_out.0.bias", node_type = "Constant"} opaque<"", "0xDEADBEEF"> : tensor<1280xf32>
    %188 = dtu_hlir.constant  {node_name = "up_blocks.1.attentions.2.transformer_blocks.0.ff.net.0.proj.bias", node_type = "Constant"} opaque<"", "0xDEADBEEF"> : tensor<10240xf32>
    %189 = dtu_hlir.constant  {node_name = "up_blocks.1.attentions.2.transformer_blocks.0.ff.net.2.bias", node_type = "Constant"} opaque<"", "0xDEADBEEF"> : tensor<1280xf32>
    %190 = dtu_hlir.constant  {node_name = "up_blocks.1.attentions.2.transformer_blocks.0.attn2.to_out.0.bias", node_type = "Constant"} opaque<"", "0xDEADBEEF"> : tensor<1280xf32>
    %191 = dtu_hlir.constant  {node_name = "up_blocks.1.attentions.2.transformer_blocks.0.norm1.weight", node_type = "Constant"} opaque<"", "0xDEADBEEF"> : tensor<1280xf32>
    %192 = dtu_hlir.constant  {node_name = "up_blocks.1.attentions.2.transformer_blocks.0.norm1.bias", node_type = "Constant"} opaque<"", "0xDEADBEEF"> : tensor<1280xf32>
    %193 = dtu_hlir.constant  {node_name = "up_blocks.1.attentions.2.transformer_blocks.0.norm2.weight", node_type = "Constant"} opaque<"", "0xDEADBEEF"> : tensor<1280xf32>
    %194 = dtu_hlir.constant  {node_name = "up_blocks.1.attentions.2.transformer_blocks.0.norm2.bias", node_type = "Constant"} opaque<"", "0xDEADBEEF"> : tensor<1280xf32>
    %195 = dtu_hlir.constant  {node_name = "up_blocks.1.attentions.2.transformer_blocks.0.norm3.weight", node_type = "Constant"} opaque<"", "0xDEADBEEF"> : tensor<1280xf32>
    %196 = dtu_hlir.constant  {node_name = "up_blocks.1.attentions.2.transformer_blocks.0.norm3.bias", node_type = "Constant"} opaque<"", "0xDEADBEEF"> : tensor<1280xf32>
    %197 = dtu_hlir.constant  {node_name = "up_blocks.1.attentions.2.proj_out.bias", node_type = "Constant"} opaque<"", "0xDEADBEEF"> : tensor<1280xf32>
    %198 = dtu_hlir.constant  {node_name = "up_blocks.1.resnets.0.conv1.weight", node_type = "Constant"} opaque<"", "0xDEADBEEF"> : tensor<1280x2560x3x3xf32>
    %199 = dtu_hlir.constant  {node_name = "up_blocks.1.resnets.0.conv1.bias", node_type = "Constant"} opaque<"", "0xDEADBEEF"> : tensor<1280xf32>
    %200 = dtu_hlir.constant  {node_name = "up_blocks.1.resnets.0.time_emb_proj.weight", node_type = "Constant"} opaque<"", "0xDEADBEEF"> : tensor<1280x1280xf32>
    %201 = dtu_hlir.constant  {node_name = "up_blocks.1.resnets.0.time_emb_proj.bias", node_type = "Constant"} opaque<"", "0xDEADBEEF"> : tensor<1280xf32>
    %202 = dtu_hlir.constant  {node_name = "up_blocks.1.resnets.0.conv2.weight", node_type = "Constant"} opaque<"", "0xDEADBEEF"> : tensor<1280x1280x3x3xf32>
    %203 = dtu_hlir.constant  {node_name = "up_blocks.1.resnets.0.conv2.bias", node_type = "Constant"} opaque<"", "0xDEADBEEF"> : tensor<1280xf32>
    %204 = dtu_hlir.constant  {node_name = "up_blocks.1.resnets.0.conv_shortcut.weight", node_type = "Constant"} opaque<"", "0xDEADBEEF"> : tensor<1280x2560x1x1xf32>
    %205 = dtu_hlir.constant  {node_name = "up_blocks.1.resnets.0.conv_shortcut.bias", node_type = "Constant"} opaque<"", "0xDEADBEEF"> : tensor<1280xf32>
    %206 = dtu_hlir.constant  {node_name = "up_blocks.1.resnets.1.conv1.weight", node_type = "Constant"} opaque<"", "0xDEADBEEF"> : tensor<1280x2560x3x3xf32>
    %207 = dtu_hlir.constant  {node_name = "up_blocks.1.resnets.1.conv1.bias", node_type = "Constant"} opaque<"", "0xDEADBEEF"> : tensor<1280xf32>
    %208 = dtu_hlir.constant  {node_name = "up_blocks.1.resnets.1.time_emb_proj.weight", node_type = "Constant"} opaque<"", "0xDEADBEEF"> : tensor<1280x1280xf32>
    %209 = dtu_hlir.constant  {node_name = "up_blocks.1.resnets.1.time_emb_proj.bias", node_type = "Constant"} opaque<"", "0xDEADBEEF"> : tensor<1280xf32>
    %210 = dtu_hlir.constant  {node_name = "up_blocks.1.resnets.1.conv2.weight", node_type = "Constant"} opaque<"", "0xDEADBEEF"> : tensor<1280x1280x3x3xf32>
    %211 = dtu_hlir.constant  {node_name = "up_blocks.1.resnets.1.conv2.bias", node_type = "Constant"} opaque<"", "0xDEADBEEF"> : tensor<1280xf32>
    %212 = dtu_hlir.constant  {node_name = "up_blocks.1.resnets.1.conv_shortcut.weight", node_type = "Constant"} opaque<"", "0xDEADBEEF"> : tensor<1280x2560x1x1xf32>
    %213 = dtu_hlir.constant  {node_name = "up_blocks.1.resnets.1.conv_shortcut.bias", node_type = "Constant"} opaque<"", "0xDEADBEEF"> : tensor<1280xf32>
    %214 = dtu_hlir.constant  {node_name = "up_blocks.1.resnets.2.conv1.weight", node_type = "Constant"} opaque<"", "0xDEADBEEF"> : tensor<1280x1920x3x3xf32>
    %215 = dtu_hlir.constant  {node_name = "up_blocks.1.resnets.2.conv1.bias", node_type = "Constant"} opaque<"", "0xDEADBEEF"> : tensor<1280xf32>
    %216 = dtu_hlir.constant  {node_name = "up_blocks.1.resnets.2.time_emb_proj.weight", node_type = "Constant"} opaque<"", "0xDEADBEEF"> : tensor<1280x1280xf32>
    %217 = dtu_hlir.constant  {node_name = "up_blocks.1.resnets.2.time_emb_proj.bias", node_type = "Constant"} opaque<"", "0xDEADBEEF"> : tensor<1280xf32>
    %218 = dtu_hlir.constant  {node_name = "up_blocks.1.resnets.2.conv2.weight", node_type = "Constant"} opaque<"", "0xDEADBEEF"> : tensor<1280x1280x3x3xf32>
    %219 = dtu_hlir.constant  {node_name = "up_blocks.1.resnets.2.conv2.bias", node_type = "Constant"} opaque<"", "0xDEADBEEF"> : tensor<1280xf32>
    %220 = dtu_hlir.constant  {node_name = "up_blocks.1.resnets.2.conv_shortcut.weight", node_type = "Constant"} opaque<"", "0xDEADBEEF"> : tensor<1280x1920x1x1xf32>
    %221 = dtu_hlir.constant  {node_name = "up_blocks.1.resnets.2.conv_shortcut.bias", node_type = "Constant"} opaque<"", "0xDEADBEEF"> : tensor<1280xf32>
    %222 = dtu_hlir.constant  {node_name = "up_blocks.1.upsamplers.0.conv.weight", node_type = "Constant"} opaque<"", "0xDEADBEEF"> : tensor<1280x1280x3x3xf32>
    %223 = dtu_hlir.constant  {node_name = "up_blocks.1.upsamplers.0.conv.bias", node_type = "Constant"} opaque<"", "0xDEADBEEF"> : tensor<1280xf32>
    %224 = dtu_hlir.constant  {node_name = "up_blocks.2.attentions.0.proj_in.bias", node_type = "Constant"} opaque<"", "0xDEADBEEF"> : tensor<640xf32>
    %225 = dtu_hlir.constant  {node_name = "up_blocks.2.attentions.0.transformer_blocks.0.attn1.to_out.0.bias", node_type = "Constant"} opaque<"", "0xDEADBEEF"> : tensor<640xf32>
    %226 = dtu_hlir.constant  {node_name = "up_blocks.2.attentions.0.transformer_blocks.0.ff.net.0.proj.bias", node_type = "Constant"} opaque<"", "0xDEADBEEF"> : tensor<5120xf32>
    %227 = dtu_hlir.constant  {node_name = "up_blocks.2.attentions.0.transformer_blocks.0.ff.net.2.bias", node_type = "Constant"} opaque<"", "0xDEADBEEF"> : tensor<640xf32>
    %228 = dtu_hlir.constant  {node_name = "up_blocks.2.attentions.0.transformer_blocks.0.attn2.to_out.0.bias", node_type = "Constant"} opaque<"", "0xDEADBEEF"> : tensor<640xf32>
    %229 = dtu_hlir.constant  {node_name = "up_blocks.2.attentions.0.transformer_blocks.0.norm1.weight", node_type = "Constant"} opaque<"", "0xDEADBEEF"> : tensor<640xf32>
    %230 = dtu_hlir.constant  {node_name = "up_blocks.2.attentions.0.transformer_blocks.0.norm1.bias", node_type = "Constant"} opaque<"", "0xDEADBEEF"> : tensor<640xf32>
    %231 = dtu_hlir.constant  {node_name = "up_blocks.2.attentions.0.transformer_blocks.0.norm2.weight", node_type = "Constant"} opaque<"", "0xDEADBEEF"> : tensor<640xf32>
    %232 = dtu_hlir.constant  {node_name = "up_blocks.2.attentions.0.transformer_blocks.0.norm2.bias", node_type = "Constant"} opaque<"", "0xDEADBEEF"> : tensor<640xf32>
    %233 = dtu_hlir.constant  {node_name = "up_blocks.2.attentions.0.transformer_blocks.0.norm3.weight", node_type = "Constant"} opaque<"", "0xDEADBEEF"> : tensor<640xf32>
    %234 = dtu_hlir.constant  {node_name = "up_blocks.2.attentions.0.transformer_blocks.0.norm3.bias", node_type = "Constant"} opaque<"", "0xDEADBEEF"> : tensor<640xf32>
    %235 = dtu_hlir.constant  {node_name = "up_blocks.2.attentions.0.proj_out.bias", node_type = "Constant"} opaque<"", "0xDEADBEEF"> : tensor<640xf32>
    %236 = dtu_hlir.constant  {node_name = "up_blocks.2.attentions.1.proj_in.bias", node_type = "Constant"} opaque<"", "0xDEADBEEF"> : tensor<640xf32>
    %237 = dtu_hlir.constant  {node_name = "up_blocks.2.attentions.1.transformer_blocks.0.attn1.to_out.0.bias", node_type = "Constant"} opaque<"", "0xDEADBEEF"> : tensor<640xf32>
    %238 = dtu_hlir.constant  {node_name = "up_blocks.2.attentions.1.transformer_blocks.0.ff.net.0.proj.bias", node_type = "Constant"} opaque<"", "0xDEADBEEF"> : tensor<5120xf32>
    %239 = dtu_hlir.constant  {node_name = "up_blocks.2.attentions.1.transformer_blocks.0.ff.net.2.bias", node_type = "Constant"} opaque<"", "0xDEADBEEF"> : tensor<640xf32>
    %240 = dtu_hlir.constant  {node_name = "up_blocks.2.attentions.1.transformer_blocks.0.attn2.to_out.0.bias", node_type = "Constant"} opaque<"", "0xDEADBEEF"> : tensor<640xf32>
    %241 = dtu_hlir.constant  {node_name = "up_blocks.2.attentions.1.transformer_blocks.0.norm1.weight", node_type = "Constant"} opaque<"", "0xDEADBEEF"> : tensor<640xf32>
    %242 = dtu_hlir.constant  {node_name = "up_blocks.2.attentions.1.transformer_blocks.0.norm1.bias", node_type = "Constant"} opaque<"", "0xDEADBEEF"> : tensor<640xf32>
    %243 = dtu_hlir.constant  {node_name = "up_blocks.2.attentions.1.transformer_blocks.0.norm2.weight", node_type = "Constant"} opaque<"", "0xDEADBEEF"> : tensor<640xf32>
    %244 = dtu_hlir.constant  {node_name = "up_blocks.2.attentions.1.transformer_blocks.0.norm2.bias", node_type = "Constant"} opaque<"", "0xDEADBEEF"> : tensor<640xf32>
    %245 = dtu_hlir.constant  {node_name = "up_blocks.2.attentions.1.transformer_blocks.0.norm3.weight", node_type = "Constant"} opaque<"", "0xDEADBEEF"> : tensor<640xf32>
    %246 = dtu_hlir.constant  {node_name = "up_blocks.2.attentions.1.transformer_blocks.0.norm3.bias", node_type = "Constant"} opaque<"", "0xDEADBEEF"> : tensor<640xf32>
    %247 = dtu_hlir.constant  {node_name = "up_blocks.2.attentions.1.proj_out.bias", node_type = "Constant"} opaque<"", "0xDEADBEEF"> : tensor<640xf32>
    %248 = dtu_hlir.constant  {node_name = "up_blocks.2.attentions.2.proj_in.bias", node_type = "Constant"} opaque<"", "0xDEADBEEF"> : tensor<640xf32>
    %249 = dtu_hlir.constant  {node_name = "up_blocks.2.attentions.2.transformer_blocks.0.attn1.to_out.0.bias", node_type = "Constant"} opaque<"", "0xDEADBEEF"> : tensor<640xf32>
    %250 = dtu_hlir.constant  {node_name = "up_blocks.2.attentions.2.transformer_blocks.0.ff.net.0.proj.bias", node_type = "Constant"} opaque<"", "0xDEADBEEF"> : tensor<5120xf32>
    %251 = dtu_hlir.constant  {node_name = "up_blocks.2.attentions.2.transformer_blocks.0.ff.net.2.bias", node_type = "Constant"} opaque<"", "0xDEADBEEF"> : tensor<640xf32>
    %252 = dtu_hlir.constant  {node_name = "up_blocks.2.attentions.2.transformer_blocks.0.attn2.to_out.0.bias", node_type = "Constant"} opaque<"", "0xDEADBEEF"> : tensor<640xf32>
    %253 = dtu_hlir.constant  {node_name = "up_blocks.2.attentions.2.transformer_blocks.0.norm1.weight", node_type = "Constant"} opaque<"", "0xDEADBEEF"> : tensor<640xf32>
    %254 = dtu_hlir.constant  {node_name = "up_blocks.2.attentions.2.transformer_blocks.0.norm1.bias", node_type = "Constant"} opaque<"", "0xDEADBEEF"> : tensor<640xf32>
    %255 = dtu_hlir.constant  {node_name = "up_blocks.2.attentions.2.transformer_blocks.0.norm2.weight", node_type = "Constant"} opaque<"", "0xDEADBEEF"> : tensor<640xf32>
    %256 = dtu_hlir.constant  {node_name = "up_blocks.2.attentions.2.transformer_blocks.0.norm2.bias", node_type = "Constant"} opaque<"", "0xDEADBEEF"> : tensor<640xf32>
    %257 = dtu_hlir.constant  {node_name = "up_blocks.2.attentions.2.transformer_blocks.0.norm3.weight", node_type = "Constant"} opaque<"", "0xDEADBEEF"> : tensor<640xf32>
    %258 = dtu_hlir.constant  {node_name = "up_blocks.2.attentions.2.transformer_blocks.0.norm3.bias", node_type = "Constant"} opaque<"", "0xDEADBEEF"> : tensor<640xf32>
    %259 = dtu_hlir.constant  {node_name = "up_blocks.2.attentions.2.proj_out.bias", node_type = "Constant"} opaque<"", "0xDEADBEEF"> : tensor<640xf32>
    %260 = dtu_hlir.constant  {node_name = "up_blocks.2.resnets.0.conv1.weight", node_type = "Constant"} opaque<"", "0xDEADBEEF"> : tensor<640x1920x3x3xf32>
    %261 = dtu_hlir.constant  {node_name = "up_blocks.2.resnets.0.conv1.bias", node_type = "Constant"} opaque<"", "0xDEADBEEF"> : tensor<640xf32>
    %262 = dtu_hlir.constant  {node_name = "up_blocks.2.resnets.0.time_emb_proj.weight", node_type = "Constant"} opaque<"", "0xDEADBEEF"> : tensor<640x1280xf32>
    %263 = dtu_hlir.constant  {node_name = "up_blocks.2.resnets.0.time_emb_proj.bias", node_type = "Constant"} opaque<"", "0xDEADBEEF"> : tensor<640xf32>
    %264 = dtu_hlir.constant  {node_name = "up_blocks.2.resnets.0.conv2.weight", node_type = "Constant"} opaque<"", "0xDEADBEEF"> : tensor<640x640x3x3xf32>
    %265 = dtu_hlir.constant  {node_name = "up_blocks.2.resnets.0.conv2.bias", node_type = "Constant"} opaque<"", "0xDEADBEEF"> : tensor<640xf32>
    %266 = dtu_hlir.constant  {node_name = "up_blocks.2.resnets.0.conv_shortcut.weight", node_type = "Constant"} opaque<"", "0xDEADBEEF"> : tensor<640x1920x1x1xf32>
    %267 = dtu_hlir.constant  {node_name = "up_blocks.2.resnets.0.conv_shortcut.bias", node_type = "Constant"} opaque<"", "0xDEADBEEF"> : tensor<640xf32>
    %268 = dtu_hlir.constant  {node_name = "up_blocks.2.resnets.1.conv1.weight", node_type = "Constant"} opaque<"", "0xDEADBEEF"> : tensor<640x1280x3x3xf32>
    %269 = dtu_hlir.constant  {node_name = "up_blocks.2.resnets.1.conv1.bias", node_type = "Constant"} opaque<"", "0xDEADBEEF"> : tensor<640xf32>
    %270 = dtu_hlir.constant  {node_name = "up_blocks.2.resnets.1.time_emb_proj.weight", node_type = "Constant"} opaque<"", "0xDEADBEEF"> : tensor<640x1280xf32>
    %271 = dtu_hlir.constant  {node_name = "up_blocks.2.resnets.1.time_emb_proj.bias", node_type = "Constant"} opaque<"", "0xDEADBEEF"> : tensor<640xf32>
    %272 = dtu_hlir.constant  {node_name = "up_blocks.2.resnets.1.conv2.weight", node_type = "Constant"} opaque<"", "0xDEADBEEF"> : tensor<640x640x3x3xf32>
    %273 = dtu_hlir.constant  {node_name = "up_blocks.2.resnets.1.conv2.bias", node_type = "Constant"} opaque<"", "0xDEADBEEF"> : tensor<640xf32>
    %274 = dtu_hlir.constant  {node_name = "up_blocks.2.resnets.1.conv_shortcut.weight", node_type = "Constant"} opaque<"", "0xDEADBEEF"> : tensor<640x1280x1x1xf32>
    %275 = dtu_hlir.constant  {node_name = "up_blocks.2.resnets.1.conv_shortcut.bias", node_type = "Constant"} opaque<"", "0xDEADBEEF"> : tensor<640xf32>
    %276 = dtu_hlir.constant  {node_name = "up_blocks.2.resnets.2.conv1.weight", node_type = "Constant"} opaque<"", "0xDEADBEEF"> : tensor<640x960x3x3xf32>
    %277 = dtu_hlir.constant  {node_name = "up_blocks.2.resnets.2.conv1.bias", node_type = "Constant"} opaque<"", "0xDEADBEEF"> : tensor<640xf32>
    %278 = dtu_hlir.constant  {node_name = "up_blocks.2.resnets.2.time_emb_proj.weight", node_type = "Constant"} opaque<"", "0xDEADBEEF"> : tensor<640x1280xf32>
    %279 = dtu_hlir.constant  {node_name = "up_blocks.2.resnets.2.time_emb_proj.bias", node_type = "Constant"} opaque<"", "0xDEADBEEF"> : tensor<640xf32>
    %280 = dtu_hlir.constant  {node_name = "up_blocks.2.resnets.2.conv2.weight", node_type = "Constant"} opaque<"", "0xDEADBEEF"> : tensor<640x640x3x3xf32>
    %281 = dtu_hlir.constant  {node_name = "up_blocks.2.resnets.2.conv2.bias", node_type = "Constant"} opaque<"", "0xDEADBEEF"> : tensor<640xf32>
    %282 = dtu_hlir.constant  {node_name = "up_blocks.2.resnets.2.conv_shortcut.weight", node_type = "Constant"} opaque<"", "0xDEADBEEF"> : tensor<640x960x1x1xf32>
    %283 = dtu_hlir.constant  {node_name = "up_blocks.2.resnets.2.conv_shortcut.bias", node_type = "Constant"} opaque<"", "0xDEADBEEF"> : tensor<640xf32>
    %284 = dtu_hlir.constant  {node_name = "up_blocks.2.upsamplers.0.conv.weight", node_type = "Constant"} opaque<"", "0xDEADBEEF"> : tensor<640x640x3x3xf32>
    %285 = dtu_hlir.constant  {node_name = "up_blocks.2.upsamplers.0.conv.bias", node_type = "Constant"} opaque<"", "0xDEADBEEF"> : tensor<640xf32>
    %286 = dtu_hlir.constant  {node_name = "up_blocks.3.attentions.0.proj_in.bias", node_type = "Constant"} opaque<"", "0xDEADBEEF"> : tensor<320xf32>
    %287 = dtu_hlir.constant  {node_name = "up_blocks.3.attentions.0.transformer_blocks.0.attn1.to_out.0.bias", node_type = "Constant"} opaque<"", "0xDEADBEEF"> : tensor<320xf32>
    %288 = dtu_hlir.constant  {node_name = "up_blocks.3.attentions.0.transformer_blocks.0.ff.net.0.proj.bias", node_type = "Constant"} opaque<"", "0xDEADBEEF"> : tensor<2560xf32>
    %289 = dtu_hlir.constant  {node_name = "up_blocks.3.attentions.0.transformer_blocks.0.ff.net.2.bias", node_type = "Constant"} opaque<"", "0xDEADBEEF"> : tensor<320xf32>
    %290 = dtu_hlir.constant  {node_name = "up_blocks.3.attentions.0.transformer_blocks.0.attn2.to_out.0.bias", node_type = "Constant"} opaque<"", "0xDEADBEEF"> : tensor<320xf32>
    %291 = dtu_hlir.constant  {node_name = "up_blocks.3.attentions.0.transformer_blocks.0.norm1.weight", node_type = "Constant"} opaque<"", "0xDEADBEEF"> : tensor<320xf32>
    %292 = dtu_hlir.constant  {node_name = "up_blocks.3.attentions.0.transformer_blocks.0.norm1.bias", node_type = "Constant"} opaque<"", "0xDEADBEEF"> : tensor<320xf32>
    %293 = dtu_hlir.constant  {node_name = "up_blocks.3.attentions.0.transformer_blocks.0.norm2.weight", node_type = "Constant"} opaque<"", "0xDEADBEEF"> : tensor<320xf32>
    %294 = dtu_hlir.constant  {node_name = "up_blocks.3.attentions.0.transformer_blocks.0.norm2.bias", node_type = "Constant"} opaque<"", "0xDEADBEEF"> : tensor<320xf32>
    %295 = dtu_hlir.constant  {node_name = "up_blocks.3.attentions.0.transformer_blocks.0.norm3.weight", node_type = "Constant"} opaque<"", "0xDEADBEEF"> : tensor<320xf32>
    %296 = dtu_hlir.constant  {node_name = "up_blocks.3.attentions.0.transformer_blocks.0.norm3.bias", node_type = "Constant"} opaque<"", "0xDEADBEEF"> : tensor<320xf32>
    %297 = dtu_hlir.constant  {node_name = "up_blocks.3.attentions.0.proj_out.bias", node_type = "Constant"} opaque<"", "0xDEADBEEF"> : tensor<320xf32>
    %298 = dtu_hlir.constant  {node_name = "up_blocks.3.attentions.1.proj_in.bias", node_type = "Constant"} opaque<"", "0xDEADBEEF"> : tensor<320xf32>
    %299 = dtu_hlir.constant  {node_name = "up_blocks.3.attentions.1.transformer_blocks.0.attn1.to_out.0.bias", node_type = "Constant"} opaque<"", "0xDEADBEEF"> : tensor<320xf32>
    %300 = dtu_hlir.constant  {node_name = "up_blocks.3.attentions.1.transformer_blocks.0.ff.net.0.proj.bias", node_type = "Constant"} opaque<"", "0xDEADBEEF"> : tensor<2560xf32>
    %301 = dtu_hlir.constant  {node_name = "up_blocks.3.attentions.1.transformer_blocks.0.ff.net.2.bias", node_type = "Constant"} opaque<"", "0xDEADBEEF"> : tensor<320xf32>
    %302 = dtu_hlir.constant  {node_name = "up_blocks.3.attentions.1.transformer_blocks.0.attn2.to_out.0.bias", node_type = "Constant"} opaque<"", "0xDEADBEEF"> : tensor<320xf32>
    %303 = dtu_hlir.constant  {node_name = "up_blocks.3.attentions.1.transformer_blocks.0.norm1.weight", node_type = "Constant"} opaque<"", "0xDEADBEEF"> : tensor<320xf32>
    %304 = dtu_hlir.constant  {node_name = "up_blocks.3.attentions.1.transformer_blocks.0.norm1.bias", node_type = "Constant"} opaque<"", "0xDEADBEEF"> : tensor<320xf32>
    %305 = dtu_hlir.constant  {node_name = "up_blocks.3.attentions.1.transformer_blocks.0.norm2.weight", node_type = "Constant"} opaque<"", "0xDEADBEEF"> : tensor<320xf32>
    %306 = dtu_hlir.constant  {node_name = "up_blocks.3.attentions.1.transformer_blocks.0.norm2.bias", node_type = "Constant"} opaque<"", "0xDEADBEEF"> : tensor<320xf32>
    %307 = dtu_hlir.constant  {node_name = "up_blocks.3.attentions.1.transformer_blocks.0.norm3.weight", node_type = "Constant"} opaque<"", "0xDEADBEEF"> : tensor<320xf32>
    %308 = dtu_hlir.constant  {node_name = "up_blocks.3.attentions.1.transformer_blocks.0.norm3.bias", node_type = "Constant"} opaque<"", "0xDEADBEEF"> : tensor<320xf32>
    %309 = dtu_hlir.constant  {node_name = "up_blocks.3.attentions.1.proj_out.bias", node_type = "Constant"} opaque<"", "0xDEADBEEF"> : tensor<320xf32>
    %310 = dtu_hlir.constant  {node_name = "up_blocks.3.attentions.2.proj_in.bias", node_type = "Constant"} opaque<"", "0xDEADBEEF"> : tensor<320xf32>
    %311 = dtu_hlir.constant  {node_name = "up_blocks.3.attentions.2.transformer_blocks.0.attn1.to_out.0.bias", node_type = "Constant"} opaque<"", "0xDEADBEEF"> : tensor<320xf32>
    %312 = dtu_hlir.constant  {node_name = "up_blocks.3.attentions.2.transformer_blocks.0.ff.net.0.proj.bias", node_type = "Constant"} opaque<"", "0xDEADBEEF"> : tensor<2560xf32>
    %313 = dtu_hlir.constant  {node_name = "up_blocks.3.attentions.2.transformer_blocks.0.ff.net.2.bias", node_type = "Constant"} opaque<"", "0xDEADBEEF"> : tensor<320xf32>
    %314 = dtu_hlir.constant  {node_name = "up_blocks.3.attentions.2.transformer_blocks.0.attn2.to_out.0.bias", node_type = "Constant"} opaque<"", "0xDEADBEEF"> : tensor<320xf32>
    %315 = dtu_hlir.constant  {node_name = "up_blocks.3.attentions.2.transformer_blocks.0.norm1.weight", node_type = "Constant"} opaque<"", "0xDEADBEEF"> : tensor<320xf32>
    %316 = dtu_hlir.constant  {node_name = "up_blocks.3.attentions.2.transformer_blocks.0.norm1.bias", node_type = "Constant"} opaque<"", "0xDEADBEEF"> : tensor<320xf32>
    %317 = dtu_hlir.constant  {node_name = "up_blocks.3.attentions.2.transformer_blocks.0.norm2.weight", node_type = "Constant"} opaque<"", "0xDEADBEEF"> : tensor<320xf32>
    %318 = dtu_hlir.constant  {node_name = "up_blocks.3.attentions.2.transformer_blocks.0.norm2.bias", node_type = "Constant"} opaque<"", "0xDEADBEEF"> : tensor<320xf32>
    %319 = dtu_hlir.constant  {node_name = "up_blocks.3.attentions.2.transformer_blocks.0.norm3.weight", node_type = "Constant"} opaque<"", "0xDEADBEEF"> : tensor<320xf32>
    %320 = dtu_hlir.constant  {node_name = "up_blocks.3.attentions.2.transformer_blocks.0.norm3.bias", node_type = "Constant"} opaque<"", "0xDEADBEEF"> : tensor<320xf32>
    %321 = dtu_hlir.constant  {node_name = "up_blocks.3.attentions.2.proj_out.bias", node_type = "Constant"} opaque<"", "0xDEADBEEF"> : tensor<320xf32>
    %322 = dtu_hlir.constant  {node_name = "up_blocks.3.resnets.0.conv1.weight", node_type = "Constant"} opaque<"", "0xDEADBEEF"> : tensor<320x960x3x3xf32>
    %323 = dtu_hlir.constant  {node_name = "up_blocks.3.resnets.0.conv1.bias", node_type = "Constant"} opaque<"", "0xDEADBEEF"> : tensor<320xf32>
    %324 = dtu_hlir.constant  {node_name = "up_blocks.3.resnets.0.time_emb_proj.weight", node_type = "Constant"} opaque<"", "0xDEADBEEF"> : tensor<320x1280xf32>
    %325 = dtu_hlir.constant  {node_name = "up_blocks.3.resnets.0.time_emb_proj.bias", node_type = "Constant"} opaque<"", "0xDEADBEEF"> : tensor<320xf32>
    %326 = dtu_hlir.constant  {node_name = "up_blocks.3.resnets.0.conv2.weight", node_type = "Constant"} opaque<"", "0xDEADBEEF"> : tensor<320x320x3x3xf32>
    %327 = dtu_hlir.constant  {node_name = "up_blocks.3.resnets.0.conv2.bias", node_type = "Constant"} opaque<"", "0xDEADBEEF"> : tensor<320xf32>
    %328 = dtu_hlir.constant  {node_name = "up_blocks.3.resnets.0.conv_shortcut.weight", node_type = "Constant"} opaque<"", "0xDEADBEEF"> : tensor<320x960x1x1xf32>
    %329 = dtu_hlir.constant  {node_name = "up_blocks.3.resnets.0.conv_shortcut.bias", node_type = "Constant"} opaque<"", "0xDEADBEEF"> : tensor<320xf32>
    %330 = dtu_hlir.constant  {node_name = "up_blocks.3.resnets.1.conv1.weight", node_type = "Constant"} opaque<"", "0xDEADBEEF"> : tensor<320x640x3x3xf32>
    %331 = dtu_hlir.constant  {node_name = "up_blocks.3.resnets.1.conv1.bias", node_type = "Constant"} opaque<"", "0xDEADBEEF"> : tensor<320xf32>
    %332 = dtu_hlir.constant  {node_name = "up_blocks.3.resnets.1.time_emb_proj.weight", node_type = "Constant"} opaque<"", "0xDEADBEEF"> : tensor<320x1280xf32>
    %333 = dtu_hlir.constant  {node_name = "up_blocks.3.resnets.1.time_emb_proj.bias", node_type = "Constant"} opaque<"", "0xDEADBEEF"> : tensor<320xf32>
    %334 = dtu_hlir.constant  {node_name = "up_blocks.3.resnets.1.conv2.weight", node_type = "Constant"} opaque<"", "0xDEADBEEF"> : tensor<320x320x3x3xf32>
    %335 = dtu_hlir.constant  {node_name = "up_blocks.3.resnets.1.conv2.bias", node_type = "Constant"} opaque<"", "0xDEADBEEF"> : tensor<320xf32>
    %336 = dtu_hlir.constant  {node_name = "up_blocks.3.resnets.1.conv_shortcut.weight", node_type = "Constant"} opaque<"", "0xDEADBEEF"> : tensor<320x640x1x1xf32>
    %337 = dtu_hlir.constant  {node_name = "up_blocks.3.resnets.1.conv_shortcut.bias", node_type = "Constant"} opaque<"", "0xDEADBEEF"> : tensor<320xf32>
    %338 = dtu_hlir.constant  {node_name = "up_blocks.3.resnets.2.conv1.weight", node_type = "Constant"} opaque<"", "0xDEADBEEF"> : tensor<320x640x3x3xf32>
    %339 = dtu_hlir.constant  {node_name = "up_blocks.3.resnets.2.conv1.bias", node_type = "Constant"} opaque<"", "0xDEADBEEF"> : tensor<320xf32>
    %340 = dtu_hlir.constant  {node_name = "up_blocks.3.resnets.2.time_emb_proj.weight", node_type = "Constant"} opaque<"", "0xDEADBEEF"> : tensor<320x1280xf32>
    %341 = dtu_hlir.constant  {node_name = "up_blocks.3.resnets.2.time_emb_proj.bias", node_type = "Constant"} opaque<"", "0xDEADBEEF"> : tensor<320xf32>
    %342 = dtu_hlir.constant  {node_name = "up_blocks.3.resnets.2.conv2.weight", node_type = "Constant"} opaque<"", "0xDEADBEEF"> : tensor<320x320x3x3xf32>
    %343 = dtu_hlir.constant  {node_name = "up_blocks.3.resnets.2.conv2.bias", node_type = "Constant"} opaque<"", "0xDEADBEEF"> : tensor<320xf32>
    %344 = dtu_hlir.constant  {node_name = "up_blocks.3.resnets.2.conv_shortcut.weight", node_type = "Constant"} opaque<"", "0xDEADBEEF"> : tensor<320x640x1x1xf32>
    %345 = dtu_hlir.constant  {node_name = "up_blocks.3.resnets.2.conv_shortcut.bias", node_type = "Constant"} opaque<"", "0xDEADBEEF"> : tensor<320xf32>
    %346 = dtu_hlir.constant  {node_name = "mid_block.attentions.0.proj_in.bias", node_type = "Constant"} opaque<"", "0xDEADBEEF"> : tensor<1280xf32>
    %347 = dtu_hlir.constant  {node_name = "mid_block.attentions.0.transformer_blocks.0.attn1.to_out.0.bias", node_type = "Constant"} opaque<"", "0xDEADBEEF"> : tensor<1280xf32>
    %348 = dtu_hlir.constant  {node_name = "mid_block.attentions.0.transformer_blocks.0.ff.net.0.proj.bias", node_type = "Constant"} opaque<"", "0xDEADBEEF"> : tensor<10240xf32>
    %349 = dtu_hlir.constant  {node_name = "mid_block.attentions.0.transformer_blocks.0.ff.net.2.bias", node_type = "Constant"} opaque<"", "0xDEADBEEF"> : tensor<1280xf32>
    %350 = dtu_hlir.constant  {node_name = "mid_block.attentions.0.transformer_blocks.0.attn2.to_out.0.bias", node_type = "Constant"} opaque<"", "0xDEADBEEF"> : tensor<1280xf32>
    %351 = dtu_hlir.constant  {node_name = "mid_block.attentions.0.transformer_blocks.0.norm1.weight", node_type = "Constant"} opaque<"", "0xDEADBEEF"> : tensor<1280xf32>
    %352 = dtu_hlir.constant  {node_name = "mid_block.attentions.0.transformer_blocks.0.norm1.bias", node_type = "Constant"} opaque<"", "0xDEADBEEF"> : tensor<1280xf32>
    %353 = dtu_hlir.constant  {node_name = "mid_block.attentions.0.transformer_blocks.0.norm2.weight", node_type = "Constant"} opaque<"", "0xDEADBEEF"> : tensor<1280xf32>
    %354 = dtu_hlir.constant  {node_name = "mid_block.attentions.0.transformer_blocks.0.norm2.bias", node_type = "Constant"} opaque<"", "0xDEADBEEF"> : tensor<1280xf32>
    %355 = dtu_hlir.constant  {node_name = "mid_block.attentions.0.transformer_blocks.0.norm3.weight", node_type = "Constant"} opaque<"", "0xDEADBEEF"> : tensor<1280xf32>
    %356 = dtu_hlir.constant  {node_name = "mid_block.attentions.0.transformer_blocks.0.norm3.bias", node_type = "Constant"} opaque<"", "0xDEADBEEF"> : tensor<1280xf32>
    %357 = dtu_hlir.constant  {node_name = "mid_block.attentions.0.proj_out.bias", node_type = "Constant"} opaque<"", "0xDEADBEEF"> : tensor<1280xf32>
    %358 = dtu_hlir.constant  {node_name = "mid_block.resnets.0.conv1.weight", node_type = "Constant"} opaque<"", "0xDEADBEEF"> : tensor<1280x1280x3x3xf32>
    %359 = dtu_hlir.constant  {node_name = "mid_block.resnets.0.conv1.bias", node_type = "Constant"} opaque<"", "0xDEADBEEF"> : tensor<1280xf32>
    %360 = dtu_hlir.constant  {node_name = "mid_block.resnets.0.time_emb_proj.weight", node_type = "Constant"} opaque<"", "0xDEADBEEF"> : tensor<1280x1280xf32>
    %361 = dtu_hlir.constant  {node_name = "mid_block.resnets.0.time_emb_proj.bias", node_type = "Constant"} opaque<"", "0xDEADBEEF"> : tensor<1280xf32>
    %362 = dtu_hlir.constant  {node_name = "mid_block.resnets.0.conv2.weight", node_type = "Constant"} opaque<"", "0xDEADBEEF"> : tensor<1280x1280x3x3xf32>
    %363 = dtu_hlir.constant  {node_name = "mid_block.resnets.0.conv2.bias", node_type = "Constant"} opaque<"", "0xDEADBEEF"> : tensor<1280xf32>
    %364 = dtu_hlir.constant  {node_name = "mid_block.resnets.1.conv1.weight", node_type = "Constant"} opaque<"", "0xDEADBEEF"> : tensor<1280x1280x3x3xf32>
    %365 = dtu_hlir.constant  {node_name = "mid_block.resnets.1.conv1.bias", node_type = "Constant"} opaque<"", "0xDEADBEEF"> : tensor<1280xf32>
    %366 = dtu_hlir.constant  {node_name = "mid_block.resnets.1.time_emb_proj.weight", node_type = "Constant"} opaque<"", "0xDEADBEEF"> : tensor<1280x1280xf32>
    %367 = dtu_hlir.constant  {node_name = "mid_block.resnets.1.time_emb_proj.bias", node_type = "Constant"} opaque<"", "0xDEADBEEF"> : tensor<1280xf32>
    %368 = dtu_hlir.constant  {node_name = "mid_block.resnets.1.conv2.weight", node_type = "Constant"} opaque<"", "0xDEADBEEF"> : tensor<1280x1280x3x3xf32>
    %369 = dtu_hlir.constant  {node_name = "mid_block.resnets.1.conv2.bias", node_type = "Constant"} opaque<"", "0xDEADBEEF"> : tensor<1280xf32>
    %370 = dtu_hlir.constant  {node_name = "conv_out.weight", node_type = "Constant"} opaque<"", "0xDEADBEEF"> : tensor<4x320x3x3xf32>
    %371 = dtu_hlir.constant  {node_name = "conv_out.bias", node_type = "Constant"} dense<[-0.0025138855, 0.00184345245, 3.44514847E-4, 0.00167942047]> : tensor<4xf32>
    %372 = dtu_hlir.constant  {node_name = "onnx::Mul_9836", node_type = "Constant"} opaque<"", "0xDEADBEEF"> : tensor<320x1x1xf32>
    %373 = dtu_hlir.constant  {node_name = "onnx::Add_9837", node_type = "Constant"} opaque<"", "0xDEADBEEF"> : tensor<320x1x1xf32>
    %374 = dtu_hlir.constant  {node_name = "onnx::Mul_9838", node_type = "Constant"} opaque<"", "0xDEADBEEF"> : tensor<320x1x1xf32>
    %375 = dtu_hlir.constant  {node_name = "onnx::Add_9839", node_type = "Constant"} opaque<"", "0xDEADBEEF"> : tensor<320x1x1xf32>
    %376 = dtu_hlir.constant  {node_name = "onnx::Mul_9840", node_type = "Constant"} opaque<"", "0xDEADBEEF"> : tensor<320x1x1xf32>
    %377 = dtu_hlir.constant  {node_name = "onnx::Add_9841", node_type = "Constant"} opaque<"", "0xDEADBEEF"> : tensor<320x1x1xf32>
    %378 = dtu_hlir.constant  {node_name = "onnx::MatMul_9842", node_type = "Constant"} opaque<"", "0xDEADBEEF"> : tensor<320x320xf32>
    %379 = dtu_hlir.constant  {node_name = "onnx::MatMul_9843", node_type = "Constant"} opaque<"", "0xDEADBEEF"> : tensor<320x320xf32>
    %380 = dtu_hlir.constant  {node_name = "onnx::MatMul_9844", node_type = "Constant"} opaque<"", "0xDEADBEEF"> : tensor<320x320xf32>
    %381 = dtu_hlir.constant  {node_name = "onnx::MatMul_9845", node_type = "Constant"} opaque<"", "0xDEADBEEF"> : tensor<320x320xf32>
    %382 = dtu_hlir.constant  {node_name = "onnx::Concat_9846", node_type = "Constant"} dense<5> : tensor<1xi64>
    %383 = dtu_hlir.constant  {node_name = "onnx::Mul_9849", node_type = "Constant"} dense<1.250000e-01> : tensor<f32>
    %384 = dtu_hlir.constant  {node_name = "onnx::Mul_9850", node_type = "Constant"} dense<0.000000e+00> : tensor<f32>
    %385 = dtu_hlir.constant  {node_name = "onnx::MatMul_9852", node_type = "Constant"} opaque<"", "0xDEADBEEF"> : tensor<320x320xf32>
    %386 = dtu_hlir.constant  {node_name = "onnx::MatMul_9853", node_type = "Constant"} opaque<"", "0xDEADBEEF"> : tensor<320x320xf32>
    %387 = dtu_hlir.constant  {node_name = "onnx::MatMul_9854", node_type = "Constant"} opaque<"", "0xDEADBEEF"> : tensor<1024x320xf32>
    %388 = dtu_hlir.constant  {node_name = "onnx::MatMul_9855", node_type = "Constant"} opaque<"", "0xDEADBEEF"> : tensor<1024x320xf32>
    %389 = dtu_hlir.constant  {node_name = "onnx::MatMul_9862", node_type = "Constant"} opaque<"", "0xDEADBEEF"> : tensor<320x320xf32>
    %390 = dtu_hlir.constant  {node_name = "onnx::MatMul_9863", node_type = "Constant"} opaque<"", "0xDEADBEEF"> : tensor<320x2560xf32>
    %391 = dtu_hlir.constant  {node_name = "onnx::MatMul_9864", node_type = "Constant"} opaque<"", "0xDEADBEEF"> : tensor<1280x320xf32>
    %392 = dtu_hlir.constant  {node_name = "onnx::MatMul_9865", node_type = "Constant"} opaque<"", "0xDEADBEEF"> : tensor<320x320xf32>
    %393 = dtu_hlir.constant  {node_name = "onnx::Mul_9866", node_type = "Constant"} opaque<"", "0xDEADBEEF"> : tensor<320x1x1xf32>
    %394 = dtu_hlir.constant  {node_name = "onnx::Add_9867", node_type = "Constant"} opaque<"", "0xDEADBEEF"> : tensor<320x1x1xf32>
    %395 = dtu_hlir.constant  {node_name = "onnx::Mul_9868", node_type = "Constant"} opaque<"", "0xDEADBEEF"> : tensor<320x1x1xf32>
    %396 = dtu_hlir.constant  {node_name = "onnx::Add_9869", node_type = "Constant"} opaque<"", "0xDEADBEEF"> : tensor<320x1x1xf32>
    %397 = dtu_hlir.constant  {node_name = "onnx::Mul_9870", node_type = "Constant"} opaque<"", "0xDEADBEEF"> : tensor<320x1x1xf32>
    %398 = dtu_hlir.constant  {node_name = "onnx::Add_9871", node_type = "Constant"} opaque<"", "0xDEADBEEF"> : tensor<320x1x1xf32>
    %399 = dtu_hlir.constant  {node_name = "onnx::MatMul_9872", node_type = "Constant"} opaque<"", "0xDEADBEEF"> : tensor<320x320xf32>
    %400 = dtu_hlir.constant  {node_name = "onnx::MatMul_9873", node_type = "Constant"} opaque<"", "0xDEADBEEF"> : tensor<320x320xf32>
    %401 = dtu_hlir.constant  {node_name = "onnx::MatMul_9874", node_type = "Constant"} opaque<"", "0xDEADBEEF"> : tensor<320x320xf32>
    %402 = dtu_hlir.constant  {node_name = "onnx::MatMul_9875", node_type = "Constant"} opaque<"", "0xDEADBEEF"> : tensor<320x320xf32>
    %403 = dtu_hlir.constant  {node_name = "onnx::MatMul_9882", node_type = "Constant"} opaque<"", "0xDEADBEEF"> : tensor<320x320xf32>
    %404 = dtu_hlir.constant  {node_name = "onnx::MatMul_9883", node_type = "Constant"} opaque<"", "0xDEADBEEF"> : tensor<320x320xf32>
    %405 = dtu_hlir.constant  {node_name = "onnx::MatMul_9884", node_type = "Constant"} opaque<"", "0xDEADBEEF"> : tensor<1024x320xf32>
    %406 = dtu_hlir.constant  {node_name = "onnx::MatMul_9885", node_type = "Constant"} opaque<"", "0xDEADBEEF"> : tensor<1024x320xf32>
    %407 = dtu_hlir.constant  {node_name = "onnx::MatMul_9892", node_type = "Constant"} opaque<"", "0xDEADBEEF"> : tensor<320x320xf32>
    %408 = dtu_hlir.constant  {node_name = "onnx::MatMul_9893", node_type = "Constant"} opaque<"", "0xDEADBEEF"> : tensor<320x2560xf32>
    %409 = dtu_hlir.constant  {node_name = "onnx::MatMul_9894", node_type = "Constant"} opaque<"", "0xDEADBEEF"> : tensor<1280x320xf32>
    %410 = dtu_hlir.constant  {node_name = "onnx::MatMul_9895", node_type = "Constant"} opaque<"", "0xDEADBEEF"> : tensor<320x320xf32>
    %411 = dtu_hlir.constant  {node_name = "onnx::Mul_9896", node_type = "Constant"} opaque<"", "0xDEADBEEF"> : tensor<320x1x1xf32>
    %412 = dtu_hlir.constant  {node_name = "onnx::Add_9897", node_type = "Constant"} opaque<"", "0xDEADBEEF"> : tensor<320x1x1xf32>
    %413 = dtu_hlir.constant  {node_name = "onnx::Mul_9898", node_type = "Constant"} opaque<"", "0xDEADBEEF"> : tensor<640x1x1xf32>
    %414 = dtu_hlir.constant  {node_name = "onnx::Add_9899", node_type = "Constant"} opaque<"", "0xDEADBEEF"> : tensor<640x1x1xf32>
    %415 = dtu_hlir.constant  {node_name = "onnx::Mul_9900", node_type = "Constant"} opaque<"", "0xDEADBEEF"> : tensor<640x1x1xf32>
    %416 = dtu_hlir.constant  {node_name = "onnx::Add_9901", node_type = "Constant"} opaque<"", "0xDEADBEEF"> : tensor<640x1x1xf32>
    %417 = dtu_hlir.constant  {node_name = "onnx::MatMul_9902", node_type = "Constant"} opaque<"", "0xDEADBEEF"> : tensor<640x640xf32>
    %418 = dtu_hlir.constant  {node_name = "onnx::MatMul_9903", node_type = "Constant"} opaque<"", "0xDEADBEEF"> : tensor<640x640xf32>
    %419 = dtu_hlir.constant  {node_name = "onnx::MatMul_9904", node_type = "Constant"} opaque<"", "0xDEADBEEF"> : tensor<640x640xf32>
    %420 = dtu_hlir.constant  {node_name = "onnx::MatMul_9905", node_type = "Constant"} opaque<"", "0xDEADBEEF"> : tensor<640x640xf32>
    %421 = dtu_hlir.constant  {node_name = "onnx::Concat_9906", node_type = "Constant"} dense<10> : tensor<1xi64>
    %422 = dtu_hlir.constant  {node_name = "onnx::MatMul_9912", node_type = "Constant"} opaque<"", "0xDEADBEEF"> : tensor<640x640xf32>
    %423 = dtu_hlir.constant  {node_name = "onnx::MatMul_9913", node_type = "Constant"} opaque<"", "0xDEADBEEF"> : tensor<640x640xf32>
    %424 = dtu_hlir.constant  {node_name = "onnx::MatMul_9914", node_type = "Constant"} opaque<"", "0xDEADBEEF"> : tensor<1024x640xf32>
    %425 = dtu_hlir.constant  {node_name = "onnx::MatMul_9915", node_type = "Constant"} opaque<"", "0xDEADBEEF"> : tensor<1024x640xf32>
    %426 = dtu_hlir.constant  {node_name = "onnx::MatMul_9922", node_type = "Constant"} opaque<"", "0xDEADBEEF"> : tensor<640x640xf32>
    %427 = dtu_hlir.constant  {node_name = "onnx::MatMul_9923", node_type = "Constant"} opaque<"", "0xDEADBEEF"> : tensor<640x5120xf32>
    %428 = dtu_hlir.constant  {node_name = "onnx::MatMul_9924", node_type = "Constant"} opaque<"", "0xDEADBEEF"> : tensor<2560x640xf32>
    %429 = dtu_hlir.constant  {node_name = "onnx::MatMul_9925", node_type = "Constant"} opaque<"", "0xDEADBEEF"> : tensor<640x640xf32>
    %430 = dtu_hlir.constant  {node_name = "onnx::Mul_9926", node_type = "Constant"} opaque<"", "0xDEADBEEF"> : tensor<640x1x1xf32>
    %431 = dtu_hlir.constant  {node_name = "onnx::Add_9927", node_type = "Constant"} opaque<"", "0xDEADBEEF"> : tensor<640x1x1xf32>
    %432 = dtu_hlir.constant  {node_name = "onnx::Mul_9928", node_type = "Constant"} opaque<"", "0xDEADBEEF"> : tensor<640x1x1xf32>
    %433 = dtu_hlir.constant  {node_name = "onnx::Add_9929", node_type = "Constant"} opaque<"", "0xDEADBEEF"> : tensor<640x1x1xf32>
    %434 = dtu_hlir.constant  {node_name = "onnx::Mul_9930", node_type = "Constant"} opaque<"", "0xDEADBEEF"> : tensor<640x1x1xf32>
    %435 = dtu_hlir.constant  {node_name = "onnx::Add_9931", node_type = "Constant"} opaque<"", "0xDEADBEEF"> : tensor<640x1x1xf32>
    %436 = dtu_hlir.constant  {node_name = "onnx::MatMul_9932", node_type = "Constant"} opaque<"", "0xDEADBEEF"> : tensor<640x640xf32>
    %437 = dtu_hlir.constant  {node_name = "onnx::MatMul_9933", node_type = "Constant"} opaque<"", "0xDEADBEEF"> : tensor<640x640xf32>
    %438 = dtu_hlir.constant  {node_name = "onnx::MatMul_9934", node_type = "Constant"} opaque<"", "0xDEADBEEF"> : tensor<640x640xf32>
    %439 = dtu_hlir.constant  {node_name = "onnx::MatMul_9935", node_type = "Constant"} opaque<"", "0xDEADBEEF"> : tensor<640x640xf32>
    %440 = dtu_hlir.constant  {node_name = "onnx::MatMul_9942", node_type = "Constant"} opaque<"", "0xDEADBEEF"> : tensor<640x640xf32>
    %441 = dtu_hlir.constant  {node_name = "onnx::MatMul_9943", node_type = "Constant"} opaque<"", "0xDEADBEEF"> : tensor<640x640xf32>
    %442 = dtu_hlir.constant  {node_name = "onnx::MatMul_9944", node_type = "Constant"} opaque<"", "0xDEADBEEF"> : tensor<1024x640xf32>
    %443 = dtu_hlir.constant  {node_name = "onnx::MatMul_9945", node_type = "Constant"} opaque<"", "0xDEADBEEF"> : tensor<1024x640xf32>
    %444 = dtu_hlir.constant  {node_name = "onnx::MatMul_9952", node_type = "Constant"} opaque<"", "0xDEADBEEF"> : tensor<640x640xf32>
    %445 = dtu_hlir.constant  {node_name = "onnx::MatMul_9953", node_type = "Constant"} opaque<"", "0xDEADBEEF"> : tensor<640x5120xf32>
    %446 = dtu_hlir.constant  {node_name = "onnx::MatMul_9954", node_type = "Constant"} opaque<"", "0xDEADBEEF"> : tensor<2560x640xf32>
    %447 = dtu_hlir.constant  {node_name = "onnx::MatMul_9955", node_type = "Constant"} opaque<"", "0xDEADBEEF"> : tensor<640x640xf32>
    %448 = dtu_hlir.constant  {node_name = "onnx::Mul_9956", node_type = "Constant"} opaque<"", "0xDEADBEEF"> : tensor<640x1x1xf32>
    %449 = dtu_hlir.constant  {node_name = "onnx::Add_9957", node_type = "Constant"} opaque<"", "0xDEADBEEF"> : tensor<640x1x1xf32>
    %450 = dtu_hlir.constant  {node_name = "onnx::Mul_9958", node_type = "Constant"} opaque<"", "0xDEADBEEF"> : tensor<1280x1x1xf32>
    %451 = dtu_hlir.constant  {node_name = "onnx::Add_9959", node_type = "Constant"} opaque<"", "0xDEADBEEF"> : tensor<1280x1x1xf32>
    %452 = dtu_hlir.constant  {node_name = "onnx::Mul_9960", node_type = "Constant"} opaque<"", "0xDEADBEEF"> : tensor<1280x1x1xf32>
    %453 = dtu_hlir.constant  {node_name = "onnx::Add_9961", node_type = "Constant"} opaque<"", "0xDEADBEEF"> : tensor<1280x1x1xf32>
    %454 = dtu_hlir.constant  {node_name = "onnx::MatMul_9962", node_type = "Constant"} opaque<"", "0xDEADBEEF"> : tensor<1280x1280xf32>
    %455 = dtu_hlir.constant  {node_name = "onnx::MatMul_9963", node_type = "Constant"} opaque<"", "0xDEADBEEF"> : tensor<1280x1280xf32>
    %456 = dtu_hlir.constant  {node_name = "onnx::MatMul_9964", node_type = "Constant"} opaque<"", "0xDEADBEEF"> : tensor<1280x1280xf32>
    %457 = dtu_hlir.constant  {node_name = "onnx::MatMul_9965", node_type = "Constant"} opaque<"", "0xDEADBEEF"> : tensor<1280x1280xf32>
    %458 = dtu_hlir.constant  {node_name = "onnx::Concat_9966", node_type = "Constant"} dense<20> : tensor<1xi64>
    %459 = dtu_hlir.constant  {node_name = "onnx::MatMul_9972", node_type = "Constant"} opaque<"", "0xDEADBEEF"> : tensor<1280x1280xf32>
    %460 = dtu_hlir.constant  {node_name = "onnx::MatMul_9973", node_type = "Constant"} opaque<"", "0xDEADBEEF"> : tensor<1280x1280xf32>
    %461 = dtu_hlir.constant  {node_name = "onnx::MatMul_9974", node_type = "Constant"} opaque<"", "0xDEADBEEF"> : tensor<1024x1280xf32>
    %462 = dtu_hlir.constant  {node_name = "onnx::MatMul_9975", node_type = "Constant"} opaque<"", "0xDEADBEEF"> : tensor<1024x1280xf32>
    %463 = dtu_hlir.constant  {node_name = "onnx::MatMul_9982", node_type = "Constant"} opaque<"", "0xDEADBEEF"> : tensor<1280x1280xf32>
    %464 = dtu_hlir.constant  {node_name = "onnx::MatMul_9983", node_type = "Constant"} opaque<"", "0xDEADBEEF"> : tensor<1280x10240xf32>
    %465 = dtu_hlir.constant  {node_name = "onnx::MatMul_9984", node_type = "Constant"} opaque<"", "0xDEADBEEF"> : tensor<5120x1280xf32>
    %466 = dtu_hlir.constant  {node_name = "onnx::MatMul_9985", node_type = "Constant"} opaque<"", "0xDEADBEEF"> : tensor<1280x1280xf32>
    %467 = dtu_hlir.constant  {node_name = "onnx::Mul_9986", node_type = "Constant"} opaque<"", "0xDEADBEEF"> : tensor<1280x1x1xf32>
    %468 = dtu_hlir.constant  {node_name = "onnx::Add_9987", node_type = "Constant"} opaque<"", "0xDEADBEEF"> : tensor<1280x1x1xf32>
    %469 = dtu_hlir.constant  {node_name = "onnx::Mul_9988", node_type = "Constant"} opaque<"", "0xDEADBEEF"> : tensor<1280x1x1xf32>
    %470 = dtu_hlir.constant  {node_name = "onnx::Add_9989", node_type = "Constant"} opaque<"", "0xDEADBEEF"> : tensor<1280x1x1xf32>
    %471 = dtu_hlir.constant  {node_name = "onnx::Mul_9990", node_type = "Constant"} opaque<"", "0xDEADBEEF"> : tensor<1280x1x1xf32>
    %472 = dtu_hlir.constant  {node_name = "onnx::Add_9991", node_type = "Constant"} opaque<"", "0xDEADBEEF"> : tensor<1280x1x1xf32>
    %473 = dtu_hlir.constant  {node_name = "onnx::MatMul_9992", node_type = "Constant"} opaque<"", "0xDEADBEEF"> : tensor<1280x1280xf32>
    %474 = dtu_hlir.constant  {node_name = "onnx::MatMul_9993", node_type = "Constant"} opaque<"", "0xDEADBEEF"> : tensor<1280x1280xf32>
    %475 = dtu_hlir.constant  {node_name = "onnx::MatMul_9994", node_type = "Constant"} opaque<"", "0xDEADBEEF"> : tensor<1280x1280xf32>
    %476 = dtu_hlir.constant  {node_name = "onnx::MatMul_9995", node_type = "Constant"} opaque<"", "0xDEADBEEF"> : tensor<1280x1280xf32>
    %477 = dtu_hlir.constant  {node_name = "onnx::MatMul_10002", node_type = "Constant"} opaque<"", "0xDEADBEEF"> : tensor<1280x1280xf32>
    %478 = dtu_hlir.constant  {node_name = "onnx::MatMul_10003", node_type = "Constant"} opaque<"", "0xDEADBEEF"> : tensor<1280x1280xf32>
    %479 = dtu_hlir.constant  {node_name = "onnx::MatMul_10004", node_type = "Constant"} opaque<"", "0xDEADBEEF"> : tensor<1024x1280xf32>
    %480 = dtu_hlir.constant  {node_name = "onnx::MatMul_10005", node_type = "Constant"} opaque<"", "0xDEADBEEF"> : tensor<1024x1280xf32>
    %481 = dtu_hlir.constant  {node_name = "onnx::MatMul_10012", node_type = "Constant"} opaque<"", "0xDEADBEEF"> : tensor<1280x1280xf32>
    %482 = dtu_hlir.constant  {node_name = "onnx::MatMul_10013", node_type = "Constant"} opaque<"", "0xDEADBEEF"> : tensor<1280x10240xf32>
    %483 = dtu_hlir.constant  {node_name = "onnx::MatMul_10014", node_type = "Constant"} opaque<"", "0xDEADBEEF"> : tensor<5120x1280xf32>
    %484 = dtu_hlir.constant  {node_name = "onnx::MatMul_10015", node_type = "Constant"} opaque<"", "0xDEADBEEF"> : tensor<1280x1280xf32>
    %485 = dtu_hlir.constant  {node_name = "onnx::Mul_10016", node_type = "Constant"} opaque<"", "0xDEADBEEF"> : tensor<1280x1x1xf32>
    %486 = dtu_hlir.constant  {node_name = "onnx::Add_10017", node_type = "Constant"} opaque<"", "0xDEADBEEF"> : tensor<1280x1x1xf32>
    %487 = dtu_hlir.constant  {node_name = "onnx::Mul_10018", node_type = "Constant"} opaque<"", "0xDEADBEEF"> : tensor<1280x1x1xf32>
    %488 = dtu_hlir.constant  {node_name = "onnx::Add_10019", node_type = "Constant"} opaque<"", "0xDEADBEEF"> : tensor<1280x1x1xf32>
    %489 = dtu_hlir.constant  {node_name = "onnx::Mul_10020", node_type = "Constant"} opaque<"", "0xDEADBEEF"> : tensor<1280x1x1xf32>
    %490 = dtu_hlir.constant  {node_name = "onnx::Add_10021", node_type = "Constant"} opaque<"", "0xDEADBEEF"> : tensor<1280x1x1xf32>
    %491 = dtu_hlir.constant  {node_name = "onnx::Mul_10022", node_type = "Constant"} opaque<"", "0xDEADBEEF"> : tensor<1280x1x1xf32>
    %492 = dtu_hlir.constant  {node_name = "onnx::Add_10023", node_type = "Constant"} opaque<"", "0xDEADBEEF"> : tensor<1280x1x1xf32>
    %493 = dtu_hlir.constant  {node_name = "onnx::Mul_10024", node_type = "Constant"} opaque<"", "0xDEADBEEF"> : tensor<1280x1x1xf32>
    %494 = dtu_hlir.constant  {node_name = "onnx::Add_10025", node_type = "Constant"} opaque<"", "0xDEADBEEF"> : tensor<1280x1x1xf32>
    %495 = dtu_hlir.constant  {node_name = "onnx::Mul_10026", node_type = "Constant"} opaque<"", "0xDEADBEEF"> : tensor<1280x1x1xf32>
    %496 = dtu_hlir.constant  {node_name = "onnx::Add_10027", node_type = "Constant"} opaque<"", "0xDEADBEEF"> : tensor<1280x1x1xf32>
    %497 = dtu_hlir.constant  {node_name = "onnx::Mul_10028", node_type = "Constant"} opaque<"", "0xDEADBEEF"> : tensor<1280x1x1xf32>
    %498 = dtu_hlir.constant  {node_name = "onnx::Add_10029", node_type = "Constant"} opaque<"", "0xDEADBEEF"> : tensor<1280x1x1xf32>
    %499 = dtu_hlir.constant  {node_name = "onnx::MatMul_10030", node_type = "Constant"} opaque<"", "0xDEADBEEF"> : tensor<1280x1280xf32>
    %500 = dtu_hlir.constant  {node_name = "onnx::MatMul_10031", node_type = "Constant"} opaque<"", "0xDEADBEEF"> : tensor<1280x1280xf32>
    %501 = dtu_hlir.constant  {node_name = "onnx::MatMul_10032", node_type = "Constant"} opaque<"", "0xDEADBEEF"> : tensor<1280x1280xf32>
    %502 = dtu_hlir.constant  {node_name = "onnx::MatMul_10033", node_type = "Constant"} opaque<"", "0xDEADBEEF"> : tensor<1280x1280xf32>
    %503 = dtu_hlir.constant  {node_name = "onnx::MatMul_10040", node_type = "Constant"} opaque<"", "0xDEADBEEF"> : tensor<1280x1280xf32>
    %504 = dtu_hlir.constant  {node_name = "onnx::MatMul_10041", node_type = "Constant"} opaque<"", "0xDEADBEEF"> : tensor<1280x1280xf32>
    %505 = dtu_hlir.constant  {node_name = "onnx::MatMul_10042", node_type = "Constant"} opaque<"", "0xDEADBEEF"> : tensor<1024x1280xf32>
    %506 = dtu_hlir.constant  {node_name = "onnx::MatMul_10043", node_type = "Constant"} opaque<"", "0xDEADBEEF"> : tensor<1024x1280xf32>
    %507 = dtu_hlir.constant  {node_name = "onnx::MatMul_10050", node_type = "Constant"} opaque<"", "0xDEADBEEF"> : tensor<1280x1280xf32>
    %508 = dtu_hlir.constant  {node_name = "onnx::MatMul_10051", node_type = "Constant"} opaque<"", "0xDEADBEEF"> : tensor<1280x10240xf32>
    %509 = dtu_hlir.constant  {node_name = "onnx::MatMul_10052", node_type = "Constant"} opaque<"", "0xDEADBEEF"> : tensor<5120x1280xf32>
    %510 = dtu_hlir.constant  {node_name = "onnx::MatMul_10053", node_type = "Constant"} opaque<"", "0xDEADBEEF"> : tensor<1280x1280xf32>
    %511 = dtu_hlir.constant  {node_name = "onnx::Mul_10054", node_type = "Constant"} opaque<"", "0xDEADBEEF"> : tensor<1280x1x1xf32>
    %512 = dtu_hlir.constant  {node_name = "onnx::Add_10055", node_type = "Constant"} opaque<"", "0xDEADBEEF"> : tensor<1280x1x1xf32>
    %513 = dtu_hlir.constant  {node_name = "onnx::Mul_10056", node_type = "Constant"} opaque<"", "0xDEADBEEF"> : tensor<1280x1x1xf32>
    %514 = dtu_hlir.constant  {node_name = "onnx::Add_10057", node_type = "Constant"} opaque<"", "0xDEADBEEF"> : tensor<1280x1x1xf32>
    %515 = dtu_hlir.constant  {node_name = "onnx::Mul_10058", node_type = "Constant"} opaque<"", "0xDEADBEEF"> : tensor<2560x1x1xf32>
    %516 = dtu_hlir.constant  {node_name = "onnx::Add_10059", node_type = "Constant"} opaque<"", "0xDEADBEEF"> : tensor<2560x1x1xf32>
    %517 = dtu_hlir.constant  {node_name = "onnx::Mul_10060", node_type = "Constant"} opaque<"", "0xDEADBEEF"> : tensor<1280x1x1xf32>
    %518 = dtu_hlir.constant  {node_name = "onnx::Add_10061", node_type = "Constant"} opaque<"", "0xDEADBEEF"> : tensor<1280x1x1xf32>
    %519 = dtu_hlir.constant  {node_name = "onnx::Mul_10062", node_type = "Constant"} opaque<"", "0xDEADBEEF"> : tensor<2560x1x1xf32>
    %520 = dtu_hlir.constant  {node_name = "onnx::Add_10063", node_type = "Constant"} opaque<"", "0xDEADBEEF"> : tensor<2560x1x1xf32>
    %521 = dtu_hlir.constant  {node_name = "onnx::Mul_10064", node_type = "Constant"} opaque<"", "0xDEADBEEF"> : tensor<1280x1x1xf32>
    %522 = dtu_hlir.constant  {node_name = "onnx::Add_10065", node_type = "Constant"} opaque<"", "0xDEADBEEF"> : tensor<1280x1x1xf32>
    %523 = dtu_hlir.constant  {node_name = "onnx::Mul_10066", node_type = "Constant"} opaque<"", "0xDEADBEEF"> : tensor<2560x1x1xf32>
    %524 = dtu_hlir.constant  {node_name = "onnx::Add_10067", node_type = "Constant"} opaque<"", "0xDEADBEEF"> : tensor<2560x1x1xf32>
    %525 = dtu_hlir.constant  {node_name = "onnx::Mul_10068", node_type = "Constant"} opaque<"", "0xDEADBEEF"> : tensor<1280x1x1xf32>
    %526 = dtu_hlir.constant  {node_name = "onnx::Add_10069", node_type = "Constant"} opaque<"", "0xDEADBEEF"> : tensor<1280x1x1xf32>
    %527 = dtu_hlir.constant  {node_name = "onnx::Resize_10070", node_type = "Constant"} dense<[1.000000e+00, 1.000000e+00, 2.000000e+00, 2.000000e+00]> : tensor<4xf32>
    %528 = dtu_hlir.constant  {node_name = "onnx::Mul_10071", node_type = "Constant"} opaque<"", "0xDEADBEEF"> : tensor<2560x1x1xf32>
    %529 = dtu_hlir.constant  {node_name = "onnx::Add_10072", node_type = "Constant"} opaque<"", "0xDEADBEEF"> : tensor<2560x1x1xf32>
    %530 = dtu_hlir.constant  {node_name = "onnx::Mul_10073", node_type = "Constant"} opaque<"", "0xDEADBEEF"> : tensor<1280x1x1xf32>
    %531 = dtu_hlir.constant  {node_name = "onnx::Add_10074", node_type = "Constant"} opaque<"", "0xDEADBEEF"> : tensor<1280x1x1xf32>
    %532 = dtu_hlir.constant  {node_name = "onnx::Mul_10075", node_type = "Constant"} opaque<"", "0xDEADBEEF"> : tensor<1280x1x1xf32>
    %533 = dtu_hlir.constant  {node_name = "onnx::Add_10076", node_type = "Constant"} opaque<"", "0xDEADBEEF"> : tensor<1280x1x1xf32>
    %534 = dtu_hlir.constant  {node_name = "onnx::MatMul_10077", node_type = "Constant"} opaque<"", "0xDEADBEEF"> : tensor<1280x1280xf32>
    %535 = dtu_hlir.constant  {node_name = "onnx::MatMul_10078", node_type = "Constant"} opaque<"", "0xDEADBEEF"> : tensor<1280x1280xf32>
    %536 = dtu_hlir.constant  {node_name = "onnx::MatMul_10079", node_type = "Constant"} opaque<"", "0xDEADBEEF"> : tensor<1280x1280xf32>
    %537 = dtu_hlir.constant  {node_name = "onnx::MatMul_10080", node_type = "Constant"} opaque<"", "0xDEADBEEF"> : tensor<1280x1280xf32>
    %538 = dtu_hlir.constant  {node_name = "onnx::MatMul_10087", node_type = "Constant"} opaque<"", "0xDEADBEEF"> : tensor<1280x1280xf32>
    %539 = dtu_hlir.constant  {node_name = "onnx::MatMul_10088", node_type = "Constant"} opaque<"", "0xDEADBEEF"> : tensor<1280x1280xf32>
    %540 = dtu_hlir.constant  {node_name = "onnx::MatMul_10089", node_type = "Constant"} opaque<"", "0xDEADBEEF"> : tensor<1024x1280xf32>
    %541 = dtu_hlir.constant  {node_name = "onnx::MatMul_10090", node_type = "Constant"} opaque<"", "0xDEADBEEF"> : tensor<1024x1280xf32>
    %542 = dtu_hlir.constant  {node_name = "onnx::MatMul_10097", node_type = "Constant"} opaque<"", "0xDEADBEEF"> : tensor<1280x1280xf32>
    %543 = dtu_hlir.constant  {node_name = "onnx::MatMul_10098", node_type = "Constant"} opaque<"", "0xDEADBEEF"> : tensor<1280x10240xf32>
    %544 = dtu_hlir.constant  {node_name = "onnx::MatMul_10099", node_type = "Constant"} opaque<"", "0xDEADBEEF"> : tensor<5120x1280xf32>
    %545 = dtu_hlir.constant  {node_name = "onnx::MatMul_10100", node_type = "Constant"} opaque<"", "0xDEADBEEF"> : tensor<1280x1280xf32>
    %546 = dtu_hlir.constant  {node_name = "onnx::Mul_10101", node_type = "Constant"} opaque<"", "0xDEADBEEF"> : tensor<2560x1x1xf32>
    %547 = dtu_hlir.constant  {node_name = "onnx::Add_10102", node_type = "Constant"} opaque<"", "0xDEADBEEF"> : tensor<2560x1x1xf32>
    %548 = dtu_hlir.constant  {node_name = "onnx::Mul_10103", node_type = "Constant"} opaque<"", "0xDEADBEEF"> : tensor<1280x1x1xf32>
    %549 = dtu_hlir.constant  {node_name = "onnx::Add_10104", node_type = "Constant"} opaque<"", "0xDEADBEEF"> : tensor<1280x1x1xf32>
    %550 = dtu_hlir.constant  {node_name = "onnx::Mul_10105", node_type = "Constant"} opaque<"", "0xDEADBEEF"> : tensor<1280x1x1xf32>
    %551 = dtu_hlir.constant  {node_name = "onnx::Add_10106", node_type = "Constant"} opaque<"", "0xDEADBEEF"> : tensor<1280x1x1xf32>
    %552 = dtu_hlir.constant  {node_name = "onnx::MatMul_10107", node_type = "Constant"} opaque<"", "0xDEADBEEF"> : tensor<1280x1280xf32>
    %553 = dtu_hlir.constant  {node_name = "onnx::MatMul_10108", node_type = "Constant"} opaque<"", "0xDEADBEEF"> : tensor<1280x1280xf32>
    %554 = dtu_hlir.constant  {node_name = "onnx::MatMul_10109", node_type = "Constant"} opaque<"", "0xDEADBEEF"> : tensor<1280x1280xf32>
    %555 = dtu_hlir.constant  {node_name = "onnx::MatMul_10110", node_type = "Constant"} opaque<"", "0xDEADBEEF"> : tensor<1280x1280xf32>
    %556 = dtu_hlir.constant  {node_name = "onnx::MatMul_10117", node_type = "Constant"} opaque<"", "0xDEADBEEF"> : tensor<1280x1280xf32>
    %557 = dtu_hlir.constant  {node_name = "onnx::MatMul_10118", node_type = "Constant"} opaque<"", "0xDEADBEEF"> : tensor<1280x1280xf32>
    %558 = dtu_hlir.constant  {node_name = "onnx::MatMul_10119", node_type = "Constant"} opaque<"", "0xDEADBEEF"> : tensor<1024x1280xf32>
    %559 = dtu_hlir.constant  {node_name = "onnx::MatMul_10120", node_type = "Constant"} opaque<"", "0xDEADBEEF"> : tensor<1024x1280xf32>
    %560 = dtu_hlir.constant  {node_name = "onnx::MatMul_10127", node_type = "Constant"} opaque<"", "0xDEADBEEF"> : tensor<1280x1280xf32>
    %561 = dtu_hlir.constant  {node_name = "onnx::MatMul_10128", node_type = "Constant"} opaque<"", "0xDEADBEEF"> : tensor<1280x10240xf32>
    %562 = dtu_hlir.constant  {node_name = "onnx::MatMul_10129", node_type = "Constant"} opaque<"", "0xDEADBEEF"> : tensor<5120x1280xf32>
    %563 = dtu_hlir.constant  {node_name = "onnx::MatMul_10130", node_type = "Constant"} opaque<"", "0xDEADBEEF"> : tensor<1280x1280xf32>
    %564 = dtu_hlir.constant  {node_name = "onnx::Mul_10131", node_type = "Constant"} opaque<"", "0xDEADBEEF"> : tensor<1920x1x1xf32>
    %565 = dtu_hlir.constant  {node_name = "onnx::Add_10132", node_type = "Constant"} opaque<"", "0xDEADBEEF"> : tensor<1920x1x1xf32>
    %566 = dtu_hlir.constant  {node_name = "onnx::Mul_10133", node_type = "Constant"} opaque<"", "0xDEADBEEF"> : tensor<1280x1x1xf32>
    %567 = dtu_hlir.constant  {node_name = "onnx::Add_10134", node_type = "Constant"} opaque<"", "0xDEADBEEF"> : tensor<1280x1x1xf32>
    %568 = dtu_hlir.constant  {node_name = "onnx::Mul_10135", node_type = "Constant"} opaque<"", "0xDEADBEEF"> : tensor<1280x1x1xf32>
    %569 = dtu_hlir.constant  {node_name = "onnx::Add_10136", node_type = "Constant"} opaque<"", "0xDEADBEEF"> : tensor<1280x1x1xf32>
    %570 = dtu_hlir.constant  {node_name = "onnx::MatMul_10137", node_type = "Constant"} opaque<"", "0xDEADBEEF"> : tensor<1280x1280xf32>
    %571 = dtu_hlir.constant  {node_name = "onnx::MatMul_10138", node_type = "Constant"} opaque<"", "0xDEADBEEF"> : tensor<1280x1280xf32>
    %572 = dtu_hlir.constant  {node_name = "onnx::MatMul_10139", node_type = "Constant"} opaque<"", "0xDEADBEEF"> : tensor<1280x1280xf32>
    %573 = dtu_hlir.constant  {node_name = "onnx::MatMul_10140", node_type = "Constant"} opaque<"", "0xDEADBEEF"> : tensor<1280x1280xf32>
    %574 = dtu_hlir.constant  {node_name = "onnx::MatMul_10147", node_type = "Constant"} opaque<"", "0xDEADBEEF"> : tensor<1280x1280xf32>
    %575 = dtu_hlir.constant  {node_name = "onnx::MatMul_10148", node_type = "Constant"} opaque<"", "0xDEADBEEF"> : tensor<1280x1280xf32>
    %576 = dtu_hlir.constant  {node_name = "onnx::MatMul_10149", node_type = "Constant"} opaque<"", "0xDEADBEEF"> : tensor<1024x1280xf32>
    %577 = dtu_hlir.constant  {node_name = "onnx::MatMul_10150", node_type = "Constant"} opaque<"", "0xDEADBEEF"> : tensor<1024x1280xf32>
    %578 = dtu_hlir.constant  {node_name = "onnx::MatMul_10157", node_type = "Constant"} opaque<"", "0xDEADBEEF"> : tensor<1280x1280xf32>
    %579 = dtu_hlir.constant  {node_name = "onnx::MatMul_10158", node_type = "Constant"} opaque<"", "0xDEADBEEF"> : tensor<1280x10240xf32>
    %580 = dtu_hlir.constant  {node_name = "onnx::MatMul_10159", node_type = "Constant"} opaque<"", "0xDEADBEEF"> : tensor<5120x1280xf32>
    %581 = dtu_hlir.constant  {node_name = "onnx::MatMul_10160", node_type = "Constant"} opaque<"", "0xDEADBEEF"> : tensor<1280x1280xf32>
    %582 = dtu_hlir.constant  {node_name = "onnx::Mul_10162", node_type = "Constant"} opaque<"", "0xDEADBEEF"> : tensor<1920x1x1xf32>
    %583 = dtu_hlir.constant  {node_name = "onnx::Add_10163", node_type = "Constant"} opaque<"", "0xDEADBEEF"> : tensor<1920x1x1xf32>
    %584 = dtu_hlir.constant  {node_name = "onnx::Mul_10164", node_type = "Constant"} opaque<"", "0xDEADBEEF"> : tensor<640x1x1xf32>
    %585 = dtu_hlir.constant  {node_name = "onnx::Add_10165", node_type = "Constant"} opaque<"", "0xDEADBEEF"> : tensor<640x1x1xf32>
    %586 = dtu_hlir.constant  {node_name = "onnx::Mul_10166", node_type = "Constant"} opaque<"", "0xDEADBEEF"> : tensor<640x1x1xf32>
    %587 = dtu_hlir.constant  {node_name = "onnx::Add_10167", node_type = "Constant"} opaque<"", "0xDEADBEEF"> : tensor<640x1x1xf32>
    %588 = dtu_hlir.constant  {node_name = "onnx::MatMul_10168", node_type = "Constant"} opaque<"", "0xDEADBEEF"> : tensor<640x640xf32>
    %589 = dtu_hlir.constant  {node_name = "onnx::MatMul_10169", node_type = "Constant"} opaque<"", "0xDEADBEEF"> : tensor<640x640xf32>
    %590 = dtu_hlir.constant  {node_name = "onnx::MatMul_10170", node_type = "Constant"} opaque<"", "0xDEADBEEF"> : tensor<640x640xf32>
    %591 = dtu_hlir.constant  {node_name = "onnx::MatMul_10171", node_type = "Constant"} opaque<"", "0xDEADBEEF"> : tensor<640x640xf32>
    %592 = dtu_hlir.constant  {node_name = "onnx::MatMul_10178", node_type = "Constant"} opaque<"", "0xDEADBEEF"> : tensor<640x640xf32>
    %593 = dtu_hlir.constant  {node_name = "onnx::MatMul_10179", node_type = "Constant"} opaque<"", "0xDEADBEEF"> : tensor<640x640xf32>
    %594 = dtu_hlir.constant  {node_name = "onnx::MatMul_10180", node_type = "Constant"} opaque<"", "0xDEADBEEF"> : tensor<1024x640xf32>
    %595 = dtu_hlir.constant  {node_name = "onnx::MatMul_10181", node_type = "Constant"} opaque<"", "0xDEADBEEF"> : tensor<1024x640xf32>
    %596 = dtu_hlir.constant  {node_name = "onnx::MatMul_10188", node_type = "Constant"} opaque<"", "0xDEADBEEF"> : tensor<640x640xf32>
    %597 = dtu_hlir.constant  {node_name = "onnx::MatMul_10189", node_type = "Constant"} opaque<"", "0xDEADBEEF"> : tensor<640x5120xf32>
    %598 = dtu_hlir.constant  {node_name = "onnx::MatMul_10190", node_type = "Constant"} opaque<"", "0xDEADBEEF"> : tensor<2560x640xf32>
    %599 = dtu_hlir.constant  {node_name = "onnx::MatMul_10191", node_type = "Constant"} opaque<"", "0xDEADBEEF"> : tensor<640x640xf32>
    %600 = dtu_hlir.constant  {node_name = "onnx::Mul_10192", node_type = "Constant"} opaque<"", "0xDEADBEEF"> : tensor<1280x1x1xf32>
    %601 = dtu_hlir.constant  {node_name = "onnx::Add_10193", node_type = "Constant"} opaque<"", "0xDEADBEEF"> : tensor<1280x1x1xf32>
    %602 = dtu_hlir.constant  {node_name = "onnx::Mul_10194", node_type = "Constant"} opaque<"", "0xDEADBEEF"> : tensor<640x1x1xf32>
    %603 = dtu_hlir.constant  {node_name = "onnx::Add_10195", node_type = "Constant"} opaque<"", "0xDEADBEEF"> : tensor<640x1x1xf32>
    %604 = dtu_hlir.constant  {node_name = "onnx::Mul_10196", node_type = "Constant"} opaque<"", "0xDEADBEEF"> : tensor<640x1x1xf32>
    %605 = dtu_hlir.constant  {node_name = "onnx::Add_10197", node_type = "Constant"} opaque<"", "0xDEADBEEF"> : tensor<640x1x1xf32>
    %606 = dtu_hlir.constant  {node_name = "onnx::MatMul_10198", node_type = "Constant"} opaque<"", "0xDEADBEEF"> : tensor<640x640xf32>
    %607 = dtu_hlir.constant  {node_name = "onnx::MatMul_10199", node_type = "Constant"} opaque<"", "0xDEADBEEF"> : tensor<640x640xf32>
    %608 = dtu_hlir.constant  {node_name = "onnx::MatMul_10200", node_type = "Constant"} opaque<"", "0xDEADBEEF"> : tensor<640x640xf32>
    %609 = dtu_hlir.constant  {node_name = "onnx::MatMul_10201", node_type = "Constant"} opaque<"", "0xDEADBEEF"> : tensor<640x640xf32>
    %610 = dtu_hlir.constant  {node_name = "onnx::MatMul_10208", node_type = "Constant"} opaque<"", "0xDEADBEEF"> : tensor<640x640xf32>
    %611 = dtu_hlir.constant  {node_name = "onnx::MatMul_10209", node_type = "Constant"} opaque<"", "0xDEADBEEF"> : tensor<640x640xf32>
    %612 = dtu_hlir.constant  {node_name = "onnx::MatMul_10210", node_type = "Constant"} opaque<"", "0xDEADBEEF"> : tensor<1024x640xf32>
    %613 = dtu_hlir.constant  {node_name = "onnx::MatMul_10211", node_type = "Constant"} opaque<"", "0xDEADBEEF"> : tensor<1024x640xf32>
    %614 = dtu_hlir.constant  {node_name = "onnx::MatMul_10218", node_type = "Constant"} opaque<"", "0xDEADBEEF"> : tensor<640x640xf32>
    %615 = dtu_hlir.constant  {node_name = "onnx::MatMul_10219", node_type = "Constant"} opaque<"", "0xDEADBEEF"> : tensor<640x5120xf32>
    %616 = dtu_hlir.constant  {node_name = "onnx::MatMul_10220", node_type = "Constant"} opaque<"", "0xDEADBEEF"> : tensor<2560x640xf32>
    %617 = dtu_hlir.constant  {node_name = "onnx::MatMul_10221", node_type = "Constant"} opaque<"", "0xDEADBEEF"> : tensor<640x640xf32>
    %618 = dtu_hlir.constant  {node_name = "onnx::Mul_10222", node_type = "Constant"} opaque<"", "0xDEADBEEF"> : tensor<960x1x1xf32>
    %619 = dtu_hlir.constant  {node_name = "onnx::Add_10223", node_type = "Constant"} opaque<"", "0xDEADBEEF"> : tensor<960x1x1xf32>
    %620 = dtu_hlir.constant  {node_name = "onnx::Mul_10224", node_type = "Constant"} opaque<"", "0xDEADBEEF"> : tensor<640x1x1xf32>
    %621 = dtu_hlir.constant  {node_name = "onnx::Add_10225", node_type = "Constant"} opaque<"", "0xDEADBEEF"> : tensor<640x1x1xf32>
    %622 = dtu_hlir.constant  {node_name = "onnx::Mul_10226", node_type = "Constant"} opaque<"", "0xDEADBEEF"> : tensor<640x1x1xf32>
    %623 = dtu_hlir.constant  {node_name = "onnx::Add_10227", node_type = "Constant"} opaque<"", "0xDEADBEEF"> : tensor<640x1x1xf32>
    %624 = dtu_hlir.constant  {node_name = "onnx::MatMul_10228", node_type = "Constant"} opaque<"", "0xDEADBEEF"> : tensor<640x640xf32>
    %625 = dtu_hlir.constant  {node_name = "onnx::MatMul_10229", node_type = "Constant"} opaque<"", "0xDEADBEEF"> : tensor<640x640xf32>
    %626 = dtu_hlir.constant  {node_name = "onnx::MatMul_10230", node_type = "Constant"} opaque<"", "0xDEADBEEF"> : tensor<640x640xf32>
    %627 = dtu_hlir.constant  {node_name = "onnx::MatMul_10231", node_type = "Constant"} opaque<"", "0xDEADBEEF"> : tensor<640x640xf32>
    %628 = dtu_hlir.constant  {node_name = "onnx::MatMul_10238", node_type = "Constant"} opaque<"", "0xDEADBEEF"> : tensor<640x640xf32>
    %629 = dtu_hlir.constant  {node_name = "onnx::MatMul_10239", node_type = "Constant"} opaque<"", "0xDEADBEEF"> : tensor<640x640xf32>
    %630 = dtu_hlir.constant  {node_name = "onnx::MatMul_10240", node_type = "Constant"} opaque<"", "0xDEADBEEF"> : tensor<1024x640xf32>
    %631 = dtu_hlir.constant  {node_name = "onnx::MatMul_10241", node_type = "Constant"} opaque<"", "0xDEADBEEF"> : tensor<1024x640xf32>
    %632 = dtu_hlir.constant  {node_name = "onnx::MatMul_10248", node_type = "Constant"} opaque<"", "0xDEADBEEF"> : tensor<640x640xf32>
    %633 = dtu_hlir.constant  {node_name = "onnx::MatMul_10249", node_type = "Constant"} opaque<"", "0xDEADBEEF"> : tensor<640x5120xf32>
    %634 = dtu_hlir.constant  {node_name = "onnx::MatMul_10250", node_type = "Constant"} opaque<"", "0xDEADBEEF"> : tensor<2560x640xf32>
    %635 = dtu_hlir.constant  {node_name = "onnx::MatMul_10251", node_type = "Constant"} opaque<"", "0xDEADBEEF"> : tensor<640x640xf32>
    %636 = dtu_hlir.constant  {node_name = "onnx::Mul_10253", node_type = "Constant"} opaque<"", "0xDEADBEEF"> : tensor<960x1x1xf32>
    %637 = dtu_hlir.constant  {node_name = "onnx::Add_10254", node_type = "Constant"} opaque<"", "0xDEADBEEF"> : tensor<960x1x1xf32>
    %638 = dtu_hlir.constant  {node_name = "onnx::Mul_10255", node_type = "Constant"} opaque<"", "0xDEADBEEF"> : tensor<320x1x1xf32>
    %639 = dtu_hlir.constant  {node_name = "onnx::Add_10256", node_type = "Constant"} opaque<"", "0xDEADBEEF"> : tensor<320x1x1xf32>
    %640 = dtu_hlir.constant  {node_name = "onnx::Mul_10257", node_type = "Constant"} opaque<"", "0xDEADBEEF"> : tensor<320x1x1xf32>
    %641 = dtu_hlir.constant  {node_name = "onnx::Add_10258", node_type = "Constant"} opaque<"", "0xDEADBEEF"> : tensor<320x1x1xf32>
    %642 = dtu_hlir.constant  {node_name = "onnx::MatMul_10259", node_type = "Constant"} opaque<"", "0xDEADBEEF"> : tensor<320x320xf32>
    %643 = dtu_hlir.constant  {node_name = "onnx::MatMul_10260", node_type = "Constant"} opaque<"", "0xDEADBEEF"> : tensor<320x320xf32>
    %644 = dtu_hlir.constant  {node_name = "onnx::MatMul_10261", node_type = "Constant"} opaque<"", "0xDEADBEEF"> : tensor<320x320xf32>
    %645 = dtu_hlir.constant  {node_name = "onnx::MatMul_10262", node_type = "Constant"} opaque<"", "0xDEADBEEF"> : tensor<320x320xf32>
    %646 = dtu_hlir.constant  {node_name = "onnx::MatMul_10269", node_type = "Constant"} opaque<"", "0xDEADBEEF"> : tensor<320x320xf32>
    %647 = dtu_hlir.constant  {node_name = "onnx::MatMul_10270", node_type = "Constant"} opaque<"", "0xDEADBEEF"> : tensor<320x320xf32>
    %648 = dtu_hlir.constant  {node_name = "onnx::MatMul_10271", node_type = "Constant"} opaque<"", "0xDEADBEEF"> : tensor<1024x320xf32>
    %649 = dtu_hlir.constant  {node_name = "onnx::MatMul_10272", node_type = "Constant"} opaque<"", "0xDEADBEEF"> : tensor<1024x320xf32>
    %650 = dtu_hlir.constant  {node_name = "onnx::MatMul_10279", node_type = "Constant"} opaque<"", "0xDEADBEEF"> : tensor<320x320xf32>
    %651 = dtu_hlir.constant  {node_name = "onnx::MatMul_10280", node_type = "Constant"} opaque<"", "0xDEADBEEF"> : tensor<320x2560xf32>
    %652 = dtu_hlir.constant  {node_name = "onnx::MatMul_10281", node_type = "Constant"} opaque<"", "0xDEADBEEF"> : tensor<1280x320xf32>
    %653 = dtu_hlir.constant  {node_name = "onnx::MatMul_10282", node_type = "Constant"} opaque<"", "0xDEADBEEF"> : tensor<320x320xf32>
    %654 = dtu_hlir.constant  {node_name = "onnx::Mul_10283", node_type = "Constant"} opaque<"", "0xDEADBEEF"> : tensor<640x1x1xf32>
    %655 = dtu_hlir.constant  {node_name = "onnx::Add_10284", node_type = "Constant"} opaque<"", "0xDEADBEEF"> : tensor<640x1x1xf32>
    %656 = dtu_hlir.constant  {node_name = "onnx::Mul_10285", node_type = "Constant"} opaque<"", "0xDEADBEEF"> : tensor<320x1x1xf32>
    %657 = dtu_hlir.constant  {node_name = "onnx::Add_10286", node_type = "Constant"} opaque<"", "0xDEADBEEF"> : tensor<320x1x1xf32>
    %658 = dtu_hlir.constant  {node_name = "onnx::Mul_10287", node_type = "Constant"} opaque<"", "0xDEADBEEF"> : tensor<320x1x1xf32>
    %659 = dtu_hlir.constant  {node_name = "onnx::Add_10288", node_type = "Constant"} opaque<"", "0xDEADBEEF"> : tensor<320x1x1xf32>
    %660 = dtu_hlir.constant  {node_name = "onnx::MatMul_10289", node_type = "Constant"} opaque<"", "0xDEADBEEF"> : tensor<320x320xf32>
    %661 = dtu_hlir.constant  {node_name = "onnx::MatMul_10290", node_type = "Constant"} opaque<"", "0xDEADBEEF"> : tensor<320x320xf32>
    %662 = dtu_hlir.constant  {node_name = "onnx::MatMul_10291", node_type = "Constant"} opaque<"", "0xDEADBEEF"> : tensor<320x320xf32>
    %663 = dtu_hlir.constant  {node_name = "onnx::MatMul_10292", node_type = "Constant"} opaque<"", "0xDEADBEEF"> : tensor<320x320xf32>
    %664 = dtu_hlir.constant  {node_name = "onnx::MatMul_10299", node_type = "Constant"} opaque<"", "0xDEADBEEF"> : tensor<320x320xf32>
    %665 = dtu_hlir.constant  {node_name = "onnx::MatMul_10300", node_type = "Constant"} opaque<"", "0xDEADBEEF"> : tensor<320x320xf32>
    %666 = dtu_hlir.constant  {node_name = "onnx::MatMul_10301", node_type = "Constant"} opaque<"", "0xDEADBEEF"> : tensor<1024x320xf32>
    %667 = dtu_hlir.constant  {node_name = "onnx::MatMul_10302", node_type = "Constant"} opaque<"", "0xDEADBEEF"> : tensor<1024x320xf32>
    %668 = dtu_hlir.constant  {node_name = "onnx::MatMul_10309", node_type = "Constant"} opaque<"", "0xDEADBEEF"> : tensor<320x320xf32>
    %669 = dtu_hlir.constant  {node_name = "onnx::MatMul_10310", node_type = "Constant"} opaque<"", "0xDEADBEEF"> : tensor<320x2560xf32>
    %670 = dtu_hlir.constant  {node_name = "onnx::MatMul_10311", node_type = "Constant"} opaque<"", "0xDEADBEEF"> : tensor<1280x320xf32>
    %671 = dtu_hlir.constant  {node_name = "onnx::MatMul_10312", node_type = "Constant"} opaque<"", "0xDEADBEEF"> : tensor<320x320xf32>
    %672 = dtu_hlir.constant  {node_name = "onnx::Mul_10313", node_type = "Constant"} opaque<"", "0xDEADBEEF"> : tensor<640x1x1xf32>
    %673 = dtu_hlir.constant  {node_name = "onnx::Add_10314", node_type = "Constant"} opaque<"", "0xDEADBEEF"> : tensor<640x1x1xf32>
    %674 = dtu_hlir.constant  {node_name = "onnx::Mul_10315", node_type = "Constant"} opaque<"", "0xDEADBEEF"> : tensor<320x1x1xf32>
    %675 = dtu_hlir.constant  {node_name = "onnx::Add_10316", node_type = "Constant"} opaque<"", "0xDEADBEEF"> : tensor<320x1x1xf32>
    %676 = dtu_hlir.constant  {node_name = "onnx::Mul_10317", node_type = "Constant"} opaque<"", "0xDEADBEEF"> : tensor<320x1x1xf32>
    %677 = dtu_hlir.constant  {node_name = "onnx::Add_10318", node_type = "Constant"} opaque<"", "0xDEADBEEF"> : tensor<320x1x1xf32>
    %678 = dtu_hlir.constant  {node_name = "onnx::MatMul_10319", node_type = "Constant"} opaque<"", "0xDEADBEEF"> : tensor<320x320xf32>
    %679 = dtu_hlir.constant  {node_name = "onnx::MatMul_10320", node_type = "Constant"} opaque<"", "0xDEADBEEF"> : tensor<320x320xf32>
    %680 = dtu_hlir.constant  {node_name = "onnx::MatMul_10321", node_type = "Constant"} opaque<"", "0xDEADBEEF"> : tensor<320x320xf32>
    %681 = dtu_hlir.constant  {node_name = "onnx::MatMul_10322", node_type = "Constant"} opaque<"", "0xDEADBEEF"> : tensor<320x320xf32>
    %682 = dtu_hlir.constant  {node_name = "onnx::MatMul_10329", node_type = "Constant"} opaque<"", "0xDEADBEEF"> : tensor<320x320xf32>
    %683 = dtu_hlir.constant  {node_name = "onnx::MatMul_10330", node_type = "Constant"} opaque<"", "0xDEADBEEF"> : tensor<320x320xf32>
    %684 = dtu_hlir.constant  {node_name = "onnx::MatMul_10331", node_type = "Constant"} opaque<"", "0xDEADBEEF"> : tensor<1024x320xf32>
    %685 = dtu_hlir.constant  {node_name = "onnx::MatMul_10332", node_type = "Constant"} opaque<"", "0xDEADBEEF"> : tensor<1024x320xf32>
    %686 = dtu_hlir.constant  {node_name = "onnx::MatMul_10339", node_type = "Constant"} opaque<"", "0xDEADBEEF"> : tensor<320x320xf32>
    %687 = dtu_hlir.constant  {node_name = "onnx::MatMul_10340", node_type = "Constant"} opaque<"", "0xDEADBEEF"> : tensor<320x2560xf32>
    %688 = dtu_hlir.constant  {node_name = "onnx::MatMul_10341", node_type = "Constant"} opaque<"", "0xDEADBEEF"> : tensor<1280x320xf32>
    %689 = dtu_hlir.constant  {node_name = "onnx::MatMul_10342", node_type = "Constant"} opaque<"", "0xDEADBEEF"> : tensor<320x320xf32>
    %690 = dtu_hlir.constant  {node_name = "onnx::Mul_10343", node_type = "Constant"} opaque<"", "0xDEADBEEF"> : tensor<320x1x1xf32>
    %691 = dtu_hlir.constant  {node_name = "onnx::Add_10344", node_type = "Constant"} opaque<"", "0xDEADBEEF"> : tensor<320x1x1xf32>
    %692 = "dtu_hlir.reshape"(%382) {node_name = "Identity_0-0", node_type = "Identity", tif_quantize_type = "f16"} : (tensor<1xi64>) -> tensor<1xi64>
    %693 = "dtu_hlir.reshape"(%384) {node_name = "Identity_1-0", node_type = "Identity", tif_quantize_type = "f16"} : (tensor<f32>) -> tensor<f32>
    %694 = "dtu_hlir.reshape"(%383) {node_name = "Identity_2-0", node_type = "Identity", tif_quantize_type = "f16"} : (tensor<f32>) -> tensor<f32>
    %695 = "dtu_hlir.reshape"(%382) {node_name = "Identity_3-0", node_type = "Identity", tif_quantize_type = "f16"} : (tensor<1xi64>) -> tensor<1xi64>
    %696 = "dtu_hlir.reshape"(%382) {node_name = "Identity_4-0", node_type = "Identity", tif_quantize_type = "f16"} : (tensor<1xi64>) -> tensor<1xi64>
    %697 = "dtu_hlir.reshape"(%382) {node_name = "Identity_5-0", node_type = "Identity", tif_quantize_type = "f16"} : (tensor<1xi64>) -> tensor<1xi64>
    %698 = "dtu_hlir.reshape"(%382) {node_name = "Identity_6-0", node_type = "Identity", tif_quantize_type = "f16"} : (tensor<1xi64>) -> tensor<1xi64>
    %699 = "dtu_hlir.reshape"(%384) {node_name = "Identity_7-0", node_type = "Identity", tif_quantize_type = "f16"} : (tensor<f32>) -> tensor<f32>
    %700 = "dtu_hlir.reshape"(%383) {node_name = "Identity_8-0", node_type = "Identity", tif_quantize_type = "f16"} : (tensor<f32>) -> tensor<f32>
    %701 = "dtu_hlir.reshape"(%382) {node_name = "Identity_9-0", node_type = "Identity", tif_quantize_type = "f16"} : (tensor<1xi64>) -> tensor<1xi64>
    %702 = "dtu_hlir.reshape"(%382) {node_name = "Identity_10-0", node_type = "Identity", tif_quantize_type = "f16"} : (tensor<1xi64>) -> tensor<1xi64>
    %703 = "dtu_hlir.reshape"(%382) {node_name = "Identity_11-0", node_type = "Identity", tif_quantize_type = "f16"} : (tensor<1xi64>) -> tensor<1xi64>
    %704 = "dtu_hlir.reshape"(%382) {node_name = "Identity_12-0", node_type = "Identity", tif_quantize_type = "f16"} : (tensor<1xi64>) -> tensor<1xi64>
    %705 = "dtu_hlir.reshape"(%384) {node_name = "Identity_13-0", node_type = "Identity", tif_quantize_type = "f16"} : (tensor<f32>) -> tensor<f32>
    %706 = "dtu_hlir.reshape"(%383) {node_name = "Identity_14-0", node_type = "Identity", tif_quantize_type = "f16"} : (tensor<f32>) -> tensor<f32>
    %707 = "dtu_hlir.reshape"(%382) {node_name = "Identity_15-0", node_type = "Identity", tif_quantize_type = "f16"} : (tensor<1xi64>) -> tensor<1xi64>
    %708 = "dtu_hlir.reshape"(%382) {node_name = "Identity_16-0", node_type = "Identity", tif_quantize_type = "f16"} : (tensor<1xi64>) -> tensor<1xi64>
    %709 = "dtu_hlir.reshape"(%382) {node_name = "Identity_17-0", node_type = "Identity", tif_quantize_type = "f16"} : (tensor<1xi64>) -> tensor<1xi64>
    %710 = "dtu_hlir.reshape"(%382) {node_name = "Identity_18-0", node_type = "Identity", tif_quantize_type = "f16"} : (tensor<1xi64>) -> tensor<1xi64>
    %711 = "dtu_hlir.reshape"(%384) {node_name = "Identity_19-0", node_type = "Identity", tif_quantize_type = "f16"} : (tensor<f32>) -> tensor<f32>
    %712 = "dtu_hlir.reshape"(%383) {node_name = "Identity_20-0", node_type = "Identity", tif_quantize_type = "f16"} : (tensor<f32>) -> tensor<f32>
    %713 = "dtu_hlir.reshape"(%382) {node_name = "Identity_21-0", node_type = "Identity", tif_quantize_type = "f16"} : (tensor<1xi64>) -> tensor<1xi64>
    %714 = "dtu_hlir.reshape"(%382) {node_name = "Identity_22-0", node_type = "Identity", tif_quantize_type = "f16"} : (tensor<1xi64>) -> tensor<1xi64>
    %715 = "dtu_hlir.reshape"(%382) {node_name = "Identity_23-0", node_type = "Identity", tif_quantize_type = "f16"} : (tensor<1xi64>) -> tensor<1xi64>
    %716 = "dtu_hlir.reshape"(%382) {node_name = "Identity_24-0", node_type = "Identity", tif_quantize_type = "f16"} : (tensor<1xi64>) -> tensor<1xi64>
    %717 = "dtu_hlir.reshape"(%384) {node_name = "Identity_25-0", node_type = "Identity", tif_quantize_type = "f16"} : (tensor<f32>) -> tensor<f32>
    %718 = "dtu_hlir.reshape"(%383) {node_name = "Identity_26-0", node_type = "Identity", tif_quantize_type = "f16"} : (tensor<f32>) -> tensor<f32>
    %719 = "dtu_hlir.reshape"(%382) {node_name = "Identity_27-0", node_type = "Identity", tif_quantize_type = "f16"} : (tensor<1xi64>) -> tensor<1xi64>
    %720 = "dtu_hlir.reshape"(%382) {node_name = "Identity_28-0", node_type = "Identity", tif_quantize_type = "f16"} : (tensor<1xi64>) -> tensor<1xi64>
    %721 = "dtu_hlir.reshape"(%382) {node_name = "Identity_29-0", node_type = "Identity", tif_quantize_type = "f16"} : (tensor<1xi64>) -> tensor<1xi64>
    %722 = "dtu_hlir.reshape"(%382) {node_name = "Identity_30-0", node_type = "Identity", tif_quantize_type = "f16"} : (tensor<1xi64>) -> tensor<1xi64>
    %723 = "dtu_hlir.reshape"(%384) {node_name = "Identity_31-0", node_type = "Identity", tif_quantize_type = "f16"} : (tensor<f32>) -> tensor<f32>
    %724 = "dtu_hlir.reshape"(%383) {node_name = "Identity_32-0", node_type = "Identity", tif_quantize_type = "f16"} : (tensor<f32>) -> tensor<f32>
    %725 = "dtu_hlir.reshape"(%382) {node_name = "Identity_33-0", node_type = "Identity", tif_quantize_type = "f16"} : (tensor<1xi64>) -> tensor<1xi64>
    %726 = "dtu_hlir.reshape"(%382) {node_name = "Identity_34-0", node_type = "Identity", tif_quantize_type = "f16"} : (tensor<1xi64>) -> tensor<1xi64>
    %727 = "dtu_hlir.reshape"(%382) {node_name = "Identity_35-0", node_type = "Identity", tif_quantize_type = "f16"} : (tensor<1xi64>) -> tensor<1xi64>
    %728 = "dtu_hlir.reshape"(%527) {node_name = "Identity_36-0", node_type = "Identity", tif_quantize_type = "f16"} : (tensor<4xf32>) -> tensor<4xf32>
    %729 = "dtu_hlir.reshape"(%421) {node_name = "Identity_37-0", node_type = "Identity", tif_quantize_type = "f16"} : (tensor<1xi64>) -> tensor<1xi64>
    %730 = "dtu_hlir.reshape"(%384) {node_name = "Identity_38-0", node_type = "Identity", tif_quantize_type = "f16"} : (tensor<f32>) -> tensor<f32>
    %731 = "dtu_hlir.reshape"(%383) {node_name = "Identity_39-0", node_type = "Identity", tif_quantize_type = "f16"} : (tensor<f32>) -> tensor<f32>
    %732 = "dtu_hlir.reshape"(%421) {node_name = "Identity_40-0", node_type = "Identity", tif_quantize_type = "f16"} : (tensor<1xi64>) -> tensor<1xi64>
    %733 = "dtu_hlir.reshape"(%421) {node_name = "Identity_41-0", node_type = "Identity", tif_quantize_type = "f16"} : (tensor<1xi64>) -> tensor<1xi64>
    %734 = "dtu_hlir.reshape"(%421) {node_name = "Identity_42-0", node_type = "Identity", tif_quantize_type = "f16"} : (tensor<1xi64>) -> tensor<1xi64>
    %735 = "dtu_hlir.reshape"(%421) {node_name = "Identity_43-0", node_type = "Identity", tif_quantize_type = "f16"} : (tensor<1xi64>) -> tensor<1xi64>
    %736 = "dtu_hlir.reshape"(%384) {node_name = "Identity_44-0", node_type = "Identity", tif_quantize_type = "f16"} : (tensor<f32>) -> tensor<f32>
    %737 = "dtu_hlir.reshape"(%383) {node_name = "Identity_45-0", node_type = "Identity", tif_quantize_type = "f16"} : (tensor<f32>) -> tensor<f32>
    %738 = "dtu_hlir.reshape"(%421) {node_name = "Identity_46-0", node_type = "Identity", tif_quantize_type = "f16"} : (tensor<1xi64>) -> tensor<1xi64>
    %739 = "dtu_hlir.reshape"(%421) {node_name = "Identity_47-0", node_type = "Identity", tif_quantize_type = "f16"} : (tensor<1xi64>) -> tensor<1xi64>
    %740 = "dtu_hlir.reshape"(%421) {node_name = "Identity_48-0", node_type = "Identity", tif_quantize_type = "f16"} : (tensor<1xi64>) -> tensor<1xi64>
    %741 = "dtu_hlir.reshape"(%421) {node_name = "Identity_49-0", node_type = "Identity", tif_quantize_type = "f16"} : (tensor<1xi64>) -> tensor<1xi64>
    %742 = "dtu_hlir.reshape"(%384) {node_name = "Identity_50-0", node_type = "Identity", tif_quantize_type = "f16"} : (tensor<f32>) -> tensor<f32>
    %743 = "dtu_hlir.reshape"(%383) {node_name = "Identity_51-0", node_type = "Identity", tif_quantize_type = "f16"} : (tensor<f32>) -> tensor<f32>
    %744 = "dtu_hlir.reshape"(%421) {node_name = "Identity_52-0", node_type = "Identity", tif_quantize_type = "f16"} : (tensor<1xi64>) -> tensor<1xi64>
    %745 = "dtu_hlir.reshape"(%421) {node_name = "Identity_53-0", node_type = "Identity", tif_quantize_type = "f16"} : (tensor<1xi64>) -> tensor<1xi64>
    %746 = "dtu_hlir.reshape"(%421) {node_name = "Identity_54-0", node_type = "Identity", tif_quantize_type = "f16"} : (tensor<1xi64>) -> tensor<1xi64>
    %747 = "dtu_hlir.reshape"(%421) {node_name = "Identity_55-0", node_type = "Identity", tif_quantize_type = "f16"} : (tensor<1xi64>) -> tensor<1xi64>
    %748 = "dtu_hlir.reshape"(%384) {node_name = "Identity_56-0", node_type = "Identity", tif_quantize_type = "f16"} : (tensor<f32>) -> tensor<f32>
    %749 = "dtu_hlir.reshape"(%383) {node_name = "Identity_57-0", node_type = "Identity", tif_quantize_type = "f16"} : (tensor<f32>) -> tensor<f32>
    %750 = "dtu_hlir.reshape"(%421) {node_name = "Identity_58-0", node_type = "Identity", tif_quantize_type = "f16"} : (tensor<1xi64>) -> tensor<1xi64>
    %751 = "dtu_hlir.reshape"(%421) {node_name = "Identity_59-0", node_type = "Identity", tif_quantize_type = "f16"} : (tensor<1xi64>) -> tensor<1xi64>
    %752 = "dtu_hlir.reshape"(%421) {node_name = "Identity_60-0", node_type = "Identity", tif_quantize_type = "f16"} : (tensor<1xi64>) -> tensor<1xi64>
    %753 = "dtu_hlir.reshape"(%421) {node_name = "Identity_61-0", node_type = "Identity", tif_quantize_type = "f16"} : (tensor<1xi64>) -> tensor<1xi64>
    %754 = "dtu_hlir.reshape"(%384) {node_name = "Identity_62-0", node_type = "Identity", tif_quantize_type = "f16"} : (tensor<f32>) -> tensor<f32>
    %755 = "dtu_hlir.reshape"(%383) {node_name = "Identity_63-0", node_type = "Identity", tif_quantize_type = "f16"} : (tensor<f32>) -> tensor<f32>
    %756 = "dtu_hlir.reshape"(%421) {node_name = "Identity_64-0", node_type = "Identity", tif_quantize_type = "f16"} : (tensor<1xi64>) -> tensor<1xi64>
    %757 = "dtu_hlir.reshape"(%421) {node_name = "Identity_65-0", node_type = "Identity", tif_quantize_type = "f16"} : (tensor<1xi64>) -> tensor<1xi64>
    %758 = "dtu_hlir.reshape"(%421) {node_name = "Identity_66-0", node_type = "Identity", tif_quantize_type = "f16"} : (tensor<1xi64>) -> tensor<1xi64>
    %759 = "dtu_hlir.reshape"(%421) {node_name = "Identity_67-0", node_type = "Identity", tif_quantize_type = "f16"} : (tensor<1xi64>) -> tensor<1xi64>
    %760 = "dtu_hlir.reshape"(%384) {node_name = "Identity_68-0", node_type = "Identity", tif_quantize_type = "f16"} : (tensor<f32>) -> tensor<f32>
    %761 = "dtu_hlir.reshape"(%383) {node_name = "Identity_69-0", node_type = "Identity", tif_quantize_type = "f16"} : (tensor<f32>) -> tensor<f32>
    %762 = "dtu_hlir.reshape"(%421) {node_name = "Identity_70-0", node_type = "Identity", tif_quantize_type = "f16"} : (tensor<1xi64>) -> tensor<1xi64>
    %763 = "dtu_hlir.reshape"(%421) {node_name = "Identity_71-0", node_type = "Identity", tif_quantize_type = "f16"} : (tensor<1xi64>) -> tensor<1xi64>
    %764 = "dtu_hlir.reshape"(%421) {node_name = "Identity_72-0", node_type = "Identity", tif_quantize_type = "f16"} : (tensor<1xi64>) -> tensor<1xi64>
    %765 = "dtu_hlir.reshape"(%527) {node_name = "Identity_73-0", node_type = "Identity", tif_quantize_type = "f16"} : (tensor<4xf32>) -> tensor<4xf32>
    %766 = "dtu_hlir.reshape"(%458) {node_name = "Identity_74-0", node_type = "Identity", tif_quantize_type = "f16"} : (tensor<1xi64>) -> tensor<1xi64>
    %767 = "dtu_hlir.reshape"(%384) {node_name = "Identity_75-0", node_type = "Identity", tif_quantize_type = "f16"} : (tensor<f32>) -> tensor<f32>
    %768 = "dtu_hlir.reshape"(%383) {node_name = "Identity_76-0", node_type = "Identity", tif_quantize_type = "f16"} : (tensor<f32>) -> tensor<f32>
    %769 = "dtu_hlir.reshape"(%458) {node_name = "Identity_77-0", node_type = "Identity", tif_quantize_type = "f16"} : (tensor<1xi64>) -> tensor<1xi64>
    %770 = "dtu_hlir.reshape"(%458) {node_name = "Identity_78-0", node_type = "Identity", tif_quantize_type = "f16"} : (tensor<1xi64>) -> tensor<1xi64>
    %771 = "dtu_hlir.reshape"(%458) {node_name = "Identity_79-0", node_type = "Identity", tif_quantize_type = "f16"} : (tensor<1xi64>) -> tensor<1xi64>
    %772 = "dtu_hlir.reshape"(%458) {node_name = "Identity_80-0", node_type = "Identity", tif_quantize_type = "f16"} : (tensor<1xi64>) -> tensor<1xi64>
    %773 = "dtu_hlir.reshape"(%384) {node_name = "Identity_81-0", node_type = "Identity", tif_quantize_type = "f16"} : (tensor<f32>) -> tensor<f32>
    %774 = "dtu_hlir.reshape"(%383) {node_name = "Identity_82-0", node_type = "Identity", tif_quantize_type = "f16"} : (tensor<f32>) -> tensor<f32>
    %775 = "dtu_hlir.reshape"(%458) {node_name = "Identity_83-0", node_type = "Identity", tif_quantize_type = "f16"} : (tensor<1xi64>) -> tensor<1xi64>
    %776 = "dtu_hlir.reshape"(%458) {node_name = "Identity_84-0", node_type = "Identity", tif_quantize_type = "f16"} : (tensor<1xi64>) -> tensor<1xi64>
    %777 = "dtu_hlir.reshape"(%458) {node_name = "Identity_85-0", node_type = "Identity", tif_quantize_type = "f16"} : (tensor<1xi64>) -> tensor<1xi64>
    %778 = "dtu_hlir.reshape"(%458) {node_name = "Identity_86-0", node_type = "Identity", tif_quantize_type = "f16"} : (tensor<1xi64>) -> tensor<1xi64>
    %779 = "dtu_hlir.reshape"(%384) {node_name = "Identity_87-0", node_type = "Identity", tif_quantize_type = "f16"} : (tensor<f32>) -> tensor<f32>
    %780 = "dtu_hlir.reshape"(%383) {node_name = "Identity_88-0", node_type = "Identity", tif_quantize_type = "f16"} : (tensor<f32>) -> tensor<f32>
    %781 = "dtu_hlir.reshape"(%458) {node_name = "Identity_89-0", node_type = "Identity", tif_quantize_type = "f16"} : (tensor<1xi64>) -> tensor<1xi64>
    %782 = "dtu_hlir.reshape"(%458) {node_name = "Identity_90-0", node_type = "Identity", tif_quantize_type = "f16"} : (tensor<1xi64>) -> tensor<1xi64>
    %783 = "dtu_hlir.reshape"(%458) {node_name = "Identity_91-0", node_type = "Identity", tif_quantize_type = "f16"} : (tensor<1xi64>) -> tensor<1xi64>
    %784 = "dtu_hlir.reshape"(%458) {node_name = "Identity_92-0", node_type = "Identity", tif_quantize_type = "f16"} : (tensor<1xi64>) -> tensor<1xi64>
    %785 = "dtu_hlir.reshape"(%384) {node_name = "Identity_93-0", node_type = "Identity", tif_quantize_type = "f16"} : (tensor<f32>) -> tensor<f32>
    %786 = "dtu_hlir.reshape"(%383) {node_name = "Identity_94-0", node_type = "Identity", tif_quantize_type = "f16"} : (tensor<f32>) -> tensor<f32>
    %787 = "dtu_hlir.reshape"(%458) {node_name = "Identity_95-0", node_type = "Identity", tif_quantize_type = "f16"} : (tensor<1xi64>) -> tensor<1xi64>
    %788 = "dtu_hlir.reshape"(%458) {node_name = "Identity_96-0", node_type = "Identity", tif_quantize_type = "f16"} : (tensor<1xi64>) -> tensor<1xi64>
    %789 = "dtu_hlir.reshape"(%458) {node_name = "Identity_97-0", node_type = "Identity", tif_quantize_type = "f16"} : (tensor<1xi64>) -> tensor<1xi64>
    %790 = "dtu_hlir.reshape"(%458) {node_name = "Identity_98-0", node_type = "Identity", tif_quantize_type = "f16"} : (tensor<1xi64>) -> tensor<1xi64>
    %791 = "dtu_hlir.reshape"(%384) {node_name = "Identity_99-0", node_type = "Identity", tif_quantize_type = "f16"} : (tensor<f32>) -> tensor<f32>
    %792 = "dtu_hlir.reshape"(%383) {node_name = "Identity_100-0", node_type = "Identity", tif_quantize_type = "f16"} : (tensor<f32>) -> tensor<f32>
    %793 = "dtu_hlir.reshape"(%458) {node_name = "Identity_101-0", node_type = "Identity", tif_quantize_type = "f16"} : (tensor<1xi64>) -> tensor<1xi64>
    %794 = "dtu_hlir.reshape"(%458) {node_name = "Identity_102-0", node_type = "Identity", tif_quantize_type = "f16"} : (tensor<1xi64>) -> tensor<1xi64>
    %795 = "dtu_hlir.reshape"(%458) {node_name = "Identity_103-0", node_type = "Identity", tif_quantize_type = "f16"} : (tensor<1xi64>) -> tensor<1xi64>
    %796 = "dtu_hlir.reshape"(%458) {node_name = "Identity_104-0", node_type = "Identity", tif_quantize_type = "f16"} : (tensor<1xi64>) -> tensor<1xi64>
    %797 = "dtu_hlir.reshape"(%384) {node_name = "Identity_105-0", node_type = "Identity", tif_quantize_type = "f16"} : (tensor<f32>) -> tensor<f32>
    %798 = "dtu_hlir.reshape"(%383) {node_name = "Identity_106-0", node_type = "Identity", tif_quantize_type = "f16"} : (tensor<f32>) -> tensor<f32>
    %799 = "dtu_hlir.reshape"(%458) {node_name = "Identity_107-0", node_type = "Identity", tif_quantize_type = "f16"} : (tensor<1xi64>) -> tensor<1xi64>
    %800 = "dtu_hlir.reshape"(%458) {node_name = "Identity_108-0", node_type = "Identity", tif_quantize_type = "f16"} : (tensor<1xi64>) -> tensor<1xi64>
    %801 = "dtu_hlir.reshape"(%458) {node_name = "Identity_109-0", node_type = "Identity", tif_quantize_type = "f16"} : (tensor<1xi64>) -> tensor<1xi64>
    %802 = "dtu_hlir.reshape"(%458) {node_name = "Identity_110-0", node_type = "Identity", tif_quantize_type = "f16"} : (tensor<1xi64>) -> tensor<1xi64>
    %803 = "dtu_hlir.reshape"(%384) {node_name = "Identity_111-0", node_type = "Identity", tif_quantize_type = "f16"} : (tensor<f32>) -> tensor<f32>
    %804 = "dtu_hlir.reshape"(%383) {node_name = "Identity_112-0", node_type = "Identity", tif_quantize_type = "f16"} : (tensor<f32>) -> tensor<f32>
    %805 = "dtu_hlir.reshape"(%458) {node_name = "Identity_113-0", node_type = "Identity", tif_quantize_type = "f16"} : (tensor<1xi64>) -> tensor<1xi64>
    %806 = "dtu_hlir.reshape"(%458) {node_name = "Identity_114-0", node_type = "Identity", tif_quantize_type = "f16"} : (tensor<1xi64>) -> tensor<1xi64>
    %807 = "dtu_hlir.reshape"(%458) {node_name = "Identity_115-0", node_type = "Identity", tif_quantize_type = "f16"} : (tensor<1xi64>) -> tensor<1xi64>
    %808 = "dtu_hlir.reshape"(%458) {node_name = "Identity_116-0", node_type = "Identity", tif_quantize_type = "f16"} : (tensor<1xi64>) -> tensor<1xi64>
    %809 = "dtu_hlir.reshape"(%384) {node_name = "Identity_117-0", node_type = "Identity", tif_quantize_type = "f16"} : (tensor<f32>) -> tensor<f32>
    %810 = "dtu_hlir.reshape"(%383) {node_name = "Identity_118-0", node_type = "Identity", tif_quantize_type = "f16"} : (tensor<f32>) -> tensor<f32>
    %811 = "dtu_hlir.reshape"(%458) {node_name = "Identity_119-0", node_type = "Identity", tif_quantize_type = "f16"} : (tensor<1xi64>) -> tensor<1xi64>
    %812 = "dtu_hlir.reshape"(%458) {node_name = "Identity_120-0", node_type = "Identity", tif_quantize_type = "f16"} : (tensor<1xi64>) -> tensor<1xi64>
    %813 = "dtu_hlir.reshape"(%458) {node_name = "Identity_121-0", node_type = "Identity", tif_quantize_type = "f16"} : (tensor<1xi64>) -> tensor<1xi64>
    %814 = "dtu_hlir.reshape"(%458) {node_name = "Identity_122-0", node_type = "Identity", tif_quantize_type = "f16"} : (tensor<1xi64>) -> tensor<1xi64>
    %815 = "dtu_hlir.reshape"(%384) {node_name = "Identity_123-0", node_type = "Identity", tif_quantize_type = "f16"} : (tensor<f32>) -> tensor<f32>
    %816 = "dtu_hlir.reshape"(%383) {node_name = "Identity_124-0", node_type = "Identity", tif_quantize_type = "f16"} : (tensor<f32>) -> tensor<f32>
    %817 = "dtu_hlir.reshape"(%458) {node_name = "Identity_125-0", node_type = "Identity", tif_quantize_type = "f16"} : (tensor<1xi64>) -> tensor<1xi64>
    %818 = "dtu_hlir.reshape"(%458) {node_name = "Identity_126-0", node_type = "Identity", tif_quantize_type = "f16"} : (tensor<1xi64>) -> tensor<1xi64>
    %819 = "dtu_hlir.reshape"(%458) {node_name = "Identity_127-0", node_type = "Identity", tif_quantize_type = "f16"} : (tensor<1xi64>) -> tensor<1xi64>
    %820 = "dtu_hlir.reshape"(%458) {node_name = "Identity_128-0", node_type = "Identity", tif_quantize_type = "f16"} : (tensor<1xi64>) -> tensor<1xi64>
    %821 = "dtu_hlir.reshape"(%384) {node_name = "Identity_129-0", node_type = "Identity", tif_quantize_type = "f16"} : (tensor<f32>) -> tensor<f32>
    %822 = "dtu_hlir.reshape"(%383) {node_name = "Identity_130-0", node_type = "Identity", tif_quantize_type = "f16"} : (tensor<f32>) -> tensor<f32>
    %823 = "dtu_hlir.reshape"(%458) {node_name = "Identity_131-0", node_type = "Identity", tif_quantize_type = "f16"} : (tensor<1xi64>) -> tensor<1xi64>
    %824 = "dtu_hlir.reshape"(%458) {node_name = "Identity_132-0", node_type = "Identity", tif_quantize_type = "f16"} : (tensor<1xi64>) -> tensor<1xi64>
    %825 = "dtu_hlir.reshape"(%458) {node_name = "Identity_133-0", node_type = "Identity", tif_quantize_type = "f16"} : (tensor<1xi64>) -> tensor<1xi64>
    %826 = "dtu_hlir.reshape"(%458) {node_name = "Identity_134-0", node_type = "Identity", tif_quantize_type = "f16"} : (tensor<1xi64>) -> tensor<1xi64>
    %827 = "dtu_hlir.reshape"(%384) {node_name = "Identity_135-0", node_type = "Identity", tif_quantize_type = "f16"} : (tensor<f32>) -> tensor<f32>
    %828 = "dtu_hlir.reshape"(%383) {node_name = "Identity_136-0", node_type = "Identity", tif_quantize_type = "f16"} : (tensor<f32>) -> tensor<f32>
    %829 = "dtu_hlir.reshape"(%458) {node_name = "Identity_137-0", node_type = "Identity", tif_quantize_type = "f16"} : (tensor<1xi64>) -> tensor<1xi64>
    %830 = "dtu_hlir.reshape"(%458) {node_name = "Identity_138-0", node_type = "Identity", tif_quantize_type = "f16"} : (tensor<1xi64>) -> tensor<1xi64>
    %831 = "dtu_hlir.reshape"(%458) {node_name = "Identity_139-0", node_type = "Identity", tif_quantize_type = "f16"} : (tensor<1xi64>) -> tensor<1xi64>
    %832 = "dtu_hlir.reshape"(%458) {node_name = "Identity_140-0", node_type = "Identity", tif_quantize_type = "f16"} : (tensor<1xi64>) -> tensor<1xi64>
    %833 = "dtu_hlir.reshape"(%384) {node_name = "Identity_141-0", node_type = "Identity", tif_quantize_type = "f16"} : (tensor<f32>) -> tensor<f32>
    %834 = "dtu_hlir.reshape"(%383) {node_name = "Identity_142-0", node_type = "Identity", tif_quantize_type = "f16"} : (tensor<f32>) -> tensor<f32>
    %835 = "dtu_hlir.reshape"(%458) {node_name = "Identity_143-0", node_type = "Identity", tif_quantize_type = "f16"} : (tensor<1xi64>) -> tensor<1xi64>
    %836 = "dtu_hlir.reshape"(%458) {node_name = "Identity_144-0", node_type = "Identity", tif_quantize_type = "f16"} : (tensor<1xi64>) -> tensor<1xi64>
    %837 = "dtu_hlir.reshape"(%421) {node_name = "Identity_145-0", node_type = "Identity", tif_quantize_type = "f16"} : (tensor<1xi64>) -> tensor<1xi64>
    %838 = "dtu_hlir.reshape"(%384) {node_name = "Identity_146-0", node_type = "Identity", tif_quantize_type = "f16"} : (tensor<f32>) -> tensor<f32>
    %839 = "dtu_hlir.reshape"(%383) {node_name = "Identity_147-0", node_type = "Identity", tif_quantize_type = "f16"} : (tensor<f32>) -> tensor<f32>
    %840 = "dtu_hlir.reshape"(%421) {node_name = "Identity_148-0", node_type = "Identity", tif_quantize_type = "f16"} : (tensor<1xi64>) -> tensor<1xi64>
    %841 = "dtu_hlir.reshape"(%421) {node_name = "Identity_149-0", node_type = "Identity", tif_quantize_type = "f16"} : (tensor<1xi64>) -> tensor<1xi64>
    %842 = "dtu_hlir.reshape"(%421) {node_name = "Identity_150-0", node_type = "Identity", tif_quantize_type = "f16"} : (tensor<1xi64>) -> tensor<1xi64>
    %843 = "dtu_hlir.reshape"(%421) {node_name = "Identity_151-0", node_type = "Identity", tif_quantize_type = "f16"} : (tensor<1xi64>) -> tensor<1xi64>
    %844 = "dtu_hlir.reshape"(%384) {node_name = "Identity_152-0", node_type = "Identity", tif_quantize_type = "f16"} : (tensor<f32>) -> tensor<f32>
    %845 = "dtu_hlir.reshape"(%383) {node_name = "Identity_153-0", node_type = "Identity", tif_quantize_type = "f16"} : (tensor<f32>) -> tensor<f32>
    %846 = "dtu_hlir.reshape"(%421) {node_name = "Identity_154-0", node_type = "Identity", tif_quantize_type = "f16"} : (tensor<1xi64>) -> tensor<1xi64>
    %847 = "dtu_hlir.reshape"(%421) {node_name = "Identity_155-0", node_type = "Identity", tif_quantize_type = "f16"} : (tensor<1xi64>) -> tensor<1xi64>
    %848 = "dtu_hlir.reshape"(%421) {node_name = "Identity_156-0", node_type = "Identity", tif_quantize_type = "f16"} : (tensor<1xi64>) -> tensor<1xi64>
    %849 = "dtu_hlir.reshape"(%421) {node_name = "Identity_157-0", node_type = "Identity", tif_quantize_type = "f16"} : (tensor<1xi64>) -> tensor<1xi64>
    %850 = "dtu_hlir.reshape"(%384) {node_name = "Identity_158-0", node_type = "Identity", tif_quantize_type = "f16"} : (tensor<f32>) -> tensor<f32>
    %851 = "dtu_hlir.reshape"(%383) {node_name = "Identity_159-0", node_type = "Identity", tif_quantize_type = "f16"} : (tensor<f32>) -> tensor<f32>
    %852 = "dtu_hlir.reshape"(%421) {node_name = "Identity_160-0", node_type = "Identity", tif_quantize_type = "f16"} : (tensor<1xi64>) -> tensor<1xi64>
    %853 = "dtu_hlir.reshape"(%421) {node_name = "Identity_161-0", node_type = "Identity", tif_quantize_type = "f16"} : (tensor<1xi64>) -> tensor<1xi64>
    %854 = "dtu_hlir.reshape"(%421) {node_name = "Identity_162-0", node_type = "Identity", tif_quantize_type = "f16"} : (tensor<1xi64>) -> tensor<1xi64>
    %855 = "dtu_hlir.reshape"(%421) {node_name = "Identity_163-0", node_type = "Identity", tif_quantize_type = "f16"} : (tensor<1xi64>) -> tensor<1xi64>
    %856 = "dtu_hlir.reshape"(%384) {node_name = "Identity_164-0", node_type = "Identity", tif_quantize_type = "f16"} : (tensor<f32>) -> tensor<f32>
    %857 = "dtu_hlir.reshape"(%383) {node_name = "Identity_165-0", node_type = "Identity", tif_quantize_type = "f16"} : (tensor<f32>) -> tensor<f32>
    %858 = "dtu_hlir.reshape"(%421) {node_name = "Identity_166-0", node_type = "Identity", tif_quantize_type = "f16"} : (tensor<1xi64>) -> tensor<1xi64>
    %859 = "dtu_hlir.reshape"(%421) {node_name = "Identity_167-0", node_type = "Identity", tif_quantize_type = "f16"} : (tensor<1xi64>) -> tensor<1xi64>
    %860 = "dtu_hlir.reshape"(%382) {node_name = "Identity_168-0", node_type = "Identity", tif_quantize_type = "f16"} : (tensor<1xi64>) -> tensor<1xi64>
    %861 = "dtu_hlir.reshape"(%384) {node_name = "Identity_169-0", node_type = "Identity", tif_quantize_type = "f16"} : (tensor<f32>) -> tensor<f32>
    %862 = "dtu_hlir.reshape"(%383) {node_name = "Identity_170-0", node_type = "Identity", tif_quantize_type = "f16"} : (tensor<f32>) -> tensor<f32>
    %863 = "dtu_hlir.reshape"(%382) {node_name = "Identity_171-0", node_type = "Identity", tif_quantize_type = "f16"} : (tensor<1xi64>) -> tensor<1xi64>
    %864 = "dtu_hlir.reshape"(%382) {node_name = "Identity_172-0", node_type = "Identity", tif_quantize_type = "f16"} : (tensor<1xi64>) -> tensor<1xi64>
    %865 = "dtu_hlir.reshape"(%382) {node_name = "Identity_173-0", node_type = "Identity", tif_quantize_type = "f16"} : (tensor<1xi64>) -> tensor<1xi64>
    %866 = "dtu_hlir.reshape"(%382) {node_name = "Identity_174-0", node_type = "Identity", tif_quantize_type = "f16"} : (tensor<1xi64>) -> tensor<1xi64>
    %867 = "dtu_hlir.reshape"(%384) {node_name = "Identity_175-0", node_type = "Identity", tif_quantize_type = "f16"} : (tensor<f32>) -> tensor<f32>
    %868 = "dtu_hlir.reshape"(%383) {node_name = "Identity_176-0", node_type = "Identity", tif_quantize_type = "f16"} : (tensor<f32>) -> tensor<f32>
    %869 = "dtu_hlir.reshape"(%382) {node_name = "Identity_177-0", node_type = "Identity", tif_quantize_type = "f16"} : (tensor<1xi64>) -> tensor<1xi64>
    %870 = "dtu_hlir.reshape"(%382) {node_name = "Identity_178-0", node_type = "Identity", tif_quantize_type = "f16"} : (tensor<1xi64>) -> tensor<1xi64>
    %871 = "dtu_hlir.reshape"(%382) {node_name = "Identity_179-0", node_type = "Identity", tif_quantize_type = "f16"} : (tensor<1xi64>) -> tensor<1xi64>
    %872 = "dtu_hlir.reshape"(%382) {node_name = "Identity_180-0", node_type = "Identity", tif_quantize_type = "f16"} : (tensor<1xi64>) -> tensor<1xi64>
    %873 = "dtu_hlir.reshape"(%384) {node_name = "Identity_181-0", node_type = "Identity", tif_quantize_type = "f16"} : (tensor<f32>) -> tensor<f32>
    %874 = "dtu_hlir.reshape"(%383) {node_name = "Identity_182-0", node_type = "Identity", tif_quantize_type = "f16"} : (tensor<f32>) -> tensor<f32>
    %875 = "dtu_hlir.reshape"(%382) {node_name = "Identity_183-0", node_type = "Identity", tif_quantize_type = "f16"} : (tensor<1xi64>) -> tensor<1xi64>
    %876 = "dtu_hlir.reshape"(%382) {node_name = "Identity_184-0", node_type = "Identity", tif_quantize_type = "f16"} : (tensor<1xi64>) -> tensor<1xi64>
    %877 = "dtu_hlir.reshape"(%382) {node_name = "Identity_185-0", node_type = "Identity", tif_quantize_type = "f16"} : (tensor<1xi64>) -> tensor<1xi64>
    %878 = "dtu_hlir.reshape"(%382) {node_name = "Identity_186-0", node_type = "Identity", tif_quantize_type = "f16"} : (tensor<1xi64>) -> tensor<1xi64>
    %879 = "dtu_hlir.reshape"(%382) {node_name = "Identity_187-0", node_type = "Identity", tif_quantize_type = "f16"} : (tensor<1xi64>) -> tensor<1xi64>
    %880 = "dtu_hlir.reshape"(%382) {node_name = "Identity_188-0", node_type = "Identity", tif_quantize_type = "f16"} : (tensor<1xi64>) -> tensor<1xi64>
    %881 = "dtu_hlir.shape"(%arg0) {end = 2147483647 : i64, node_name = "Shape_189-0", node_type = "Shape", start = 0 : i64, tif_quantize_type = "f16"} : (tensor<2x4x64x64xf32>) -> tensor<4xi64>
    %882 = dtu_hlir.constant  {node_name = "Constant_190-0", node_type = "Constant"} dense<0> : tensor<i64>
    %883 = "dtu_hlir.gather"(%881, %882) {dimension_numbers = {collapsed_slice_dims = dense<0> : tensor<1xi64>, index_vector_dim = 0 : i64, offset_dims = dense<[]> : tensor<0xi64>, start_index_map = dense<0> : tensor<1xi64>}, indices_are_sorted = false, node_name = "Gather_191-0", node_type = "Gather", slice_sizes = dense<1> : tensor<1xi64>, tif_quantize_type = "f16"} : (tensor<4xi64>, tensor<i64>) -> tensor<i64>
    %884 = dtu_hlir.constant  {node_name = "Constant_192-0", node_type = "Constant"} dense<0> : tensor<1xi64>
    %885 = "dtu_hlir.unsqueeze"(%883, %884) {node_name = "Unsqueeze_193-0", node_type = "Unsqueeze", tif_quantize_type = "f16"} : (tensor<i64>, tensor<1xi64>) -> tensor<1xi64>
    %886 = "dtu_hlir.concatenate"(%885) {dimension = 0 : i64, node_name = "Concat_194-0", node_type = "Concat", tif_quantize_type = "f16"} : (tensor<1xi64>) -> tensor<1xi64>
    %887 = dtu_hlir.constant  {node_name = "Constant_195-0", node_type = "Constant"} dense<-1> : tensor<1xi64>
    %888 = "dtu_hlir.dynamic_reshape"(%886, %887) {allowzero = 0 : i64, node_name = "Reshape_196-0", node_type = "Reshape", tif_quantize_type = "f16"} : (tensor<1xi64>, tensor<1xi64>) -> tensor<1xi64>
    %889 = "dtu_hlir.shape"(%888) {end = 2147483647 : i64, node_name = "Shape_197-0", node_type = "Shape", start = 0 : i64, tif_quantize_type = "f16"} : (tensor<1xi64>) -> tensor<1xi64>
    %890 = dtu_hlir.constant  {node_name = "ConstantOfShape_198-Const-0", node_type = "ConstantOfShape"} dense<1> : tensor<1xi64>
    %891 = "dtu_hlir.dynamic_broadcast_in_dim"(%890, %889) {node_name = "ConstantOfShape_198-1", node_type = "ConstantOfShape", tif_quantize_type = "f16"} : (tensor<1xi64>, tensor<1xi64>) -> tensor<1xi64>
    %892 = dtu_hlir.constant  {node_name = "Constant_199-0", node_type = "Constant"} dense<-1> : tensor<i64>
    %893 = "dtu_hlir.broadcast_in_dim"(%892) {node_name = "Mul_200-0_hlir_0", node_type = "Mul", tif_quantize_type = "f16"} : (tensor<i64>) -> tensor<1xi64>
    %894 = "dtu_hlir.mul"(%891, %893) {node_name = "Mul_200-0", node_type = "Mul", tif_quantize_type = "f16"} : (tensor<1xi64>, tensor<1xi64>) -> tensor<1xi64>
    %895 = "dtu_hlir.compare"(%888, %894) {comparison_direction = "EQ", node_name = "Equal_201-0", node_type = "Equal", tif_quantize_type = "f16"} : (tensor<1xi64>, tensor<1xi64>) -> tensor<1xi1>
    %896 = "dtu_hlir.select"(%895, %891, %888) {node_name = "Where_202-0", node_type = "Where", tif_quantize_type = "f16"} : (tensor<1xi1>, tensor<1xi64>, tensor<1xi64>) -> tensor<1xi64>
    %897 = "dtu_hlir.dynamic_broadcast_in_dim"(%arg1, %896) {broadcast_dimensions = dense<0> : tensor<1xi64>, node_name = "Expand_203-0", node_type = "Expand", tif_quantize_type = "f16"} : (tensor<1xf32>, tensor<1xi64>) -> tensor<2xf32>
    %898 = dtu_hlir.constant  {node_name = "Constant_204-0", node_type = "Constant"} dense<1> : tensor<1xi64>
    %899 = "dtu_hlir.unsqueeze"(%897, %898) {node_name = "Unsqueeze_205-0", node_type = "Unsqueeze", tif_quantize_type = "f16"} : (tensor<2xf32>, tensor<1xi64>) -> tensor<2x1xf32>
    %900 = "dtu_hlir.convert"(%899) {node_name = "Cast_206-0", node_type = "Cast", tif_quantize_type = "f16"} : (tensor<2x1xf32>) -> tensor<2x1xf32>
    %901 = dtu_hlir.constant  {node_name = "Constant_207-0", node_type = "Constant"} opaque<"", "0xDEADBEEF"> : tensor<1x160xf32>
    %902 = "dtu_hlir.mul"(%900, %901) {broadcast_dimensions = dense<[0, 1]> : tensor<2xi64>, node_name = "Mul_208-0", node_type = "Mul", tif_quantize_type = "f16"} : (tensor<2x1xf32>, tensor<1x160xf32>) -> tensor<2x160xf32>
    %903 = "dtu_hlir.sine"(%902) {node_name = "Sin_209-0", node_type = "Sin", tif_quantize_type = "f16"} : (tensor<2x160xf32>) -> tensor<2x160xf32>
    %904 = "dtu_hlir.cos"(%902) {node_name = "Cos_210-0", node_type = "Cos", tif_quantize_type = "f16"} : (tensor<2x160xf32>) -> tensor<2x160xf32>
    %905 = "dtu_hlir.concatenate"(%903, %904) {dimension = 1 : i64, node_name = "Concat_211-0", node_type = "Concat", tif_quantize_type = "f16"} : (tensor<2x160xf32>, tensor<2x160xf32>) -> tensor<2x320xf32>
    %906 = "dtu_hlir.slice"(%905) {limit_indices = dense<[2, 320]> : tensor<2xi64>, node_name = "Slice_216-0", node_type = "Slice", start_indices = dense<[0, 160]> : tensor<2xi64>, strides = dense<1> : tensor<2xi64>, tif_quantize_type = "f16"} : (tensor<2x320xf32>) -> tensor<2x160xf32>
    %907 = "dtu_hlir.slice"(%905) {limit_indices = dense<[2, 160]> : tensor<2xi64>, node_name = "Slice_221-0", node_type = "Slice", start_indices = dense<0> : tensor<2xi64>, strides = dense<1> : tensor<2xi64>, tif_quantize_type = "f16"} : (tensor<2x320xf32>) -> tensor<2x160xf32>
    %908 = "dtu_hlir.concatenate"(%906, %907) {dimension = 1 : i64, node_name = "Concat_222-0", node_type = "Concat", tif_quantize_type = "f16"} : (tensor<2x160xf32>, tensor<2x160xf32>) -> tensor<2x320xf32>
    %909 = "dtu_hlir.convert"(%908) {node_name = "Cast_223-0", node_type = "Cast", tif_quantize_type = "f16"} : (tensor<2x320xf32>) -> tensor<2x320xf32>
    %910 = "dtu_hlir.transpose"(%2) {node_name = "Gemm_224-Transpose-0", node_type = "Gemm", permutation = dense<[1, 0]> : tensor<2xi64>, tif_quantize_type = "f16"} : (tensor<1280x320xf32>) -> tensor<320x1280xf32>
    %911 = "dtu_hlir.gemm"(%909, %910, %3) {alpha = 1.000000e+00 : f32, beta = 1.000000e+00 : f32, node_name = "Gemm_224-1", node_type = "Gemm", tif_quantize_type = "f16", transA = 0 : i64, transB = 0 : i64} : (tensor<2x320xf32>, tensor<320x1280xf32>, tensor<1280xf32>) -> tensor<2x1280xf32>
    %912 = "dtu_hlir.sigmoid"(%911) {node_name = "Sigmoid_225-0", node_type = "Sigmoid", tif_quantize_type = "f16"} : (tensor<2x1280xf32>) -> tensor<2x1280xf32>
    %913 = "dtu_hlir.mul"(%911, %912) {broadcast_dimensions = dense<[0, 1]> : tensor<2xi64>, node_name = "Mul_226-0", node_type = "Mul", tif_quantize_type = "f16"} : (tensor<2x1280xf32>, tensor<2x1280xf32>) -> tensor<2x1280xf32>
    %914 = "dtu_hlir.transpose"(%4) {node_name = "Gemm_227-Transpose-0", node_type = "Gemm", permutation = dense<[1, 0]> : tensor<2xi64>, tif_quantize_type = "f16"} : (tensor<1280x1280xf32>) -> tensor<1280x1280xf32>
    %915 = "dtu_hlir.gemm"(%913, %914, %5) {alpha = 1.000000e+00 : f32, beta = 1.000000e+00 : f32, node_name = "Gemm_227-1", node_type = "Gemm", tif_quantize_type = "f16", transA = 0 : i64, transB = 0 : i64} : (tensor<2x1280xf32>, tensor<1280x1280xf32>, tensor<1280xf32>) -> tensor<2x1280xf32>
    %916 = "dtu_hlir.conv_bias"(%arg0, %0, %1) {batch_group_count = 1 : i64, dimension_numbers = {input_batch_dimension = 0 : i64, input_feature_dimension = 1 : i64, input_spatial_dimensions = dense<[2, 3]> : tensor<2xi64>, kernel_input_feature_dimension = 1 : i64, kernel_output_feature_dimension = 0 : i64, kernel_spatial_dimensions = dense<[2, 3]> : tensor<2xi64>, output_batch_dimension = 0 : i64, output_feature_dimension = 1 : i64, output_spatial_dimensions = dense<[2, 3]> : tensor<2xi64>}, feature_group_count = 1 : i64, lhs_dilation = dense<1> : tensor<2xi64>, node_name = "Conv_228-0", node_type = "Conv", padding = dense<1> : tensor<4xi64>, rhs_dilation = dense<1> : tensor<2xi64>, tif_quantize_type = "f16", window_strides = dense<1> : tensor<2xi64>} : (tensor<2x4x64x64xf32>, tensor<320x4x3x3xf32>, tensor<320xf32>) -> tensor<2x320x64x64xf32>
    %917 = dtu_hlir.constant  {node_name = "Constant_229-0", node_type = "Constant"} dense<[0, 32, -1]> : tensor<3xi64>
    %918 = "dtu_hlir.dynamic_reshape"(%916, %917) {allowzero = 0 : i64, node_name = "Reshape_230-0", node_type = "Reshape", tif_quantize_type = "f16"} : (tensor<2x320x64x64xf32>, tensor<3xi64>) -> tensor<2x32x40960xf32>
    %919 = dtu_hlir.constant  {node_name = "Constant_231-0", node_type = "Constant"} dense<1.000000e+00> : tensor<32xf32>
    %920 = dtu_hlir.constant  {node_name = "Constant_232-0", node_type = "Constant"} dense<0.000000e+00> : tensor<32xf32>
    %921 = "dtu_hlir.instance_norm"(%918, %919, %920) {epsilon = 9.99999974E-6 : f32, layout = {batch_dimension = 0 : i64, feature_dimension = 1 : i64, spatial_dimensions = dense<2> : tensor<1xi64>}, node_name = "InstanceNormalization_233-0", node_type = "InstanceNormalization", tif_quantize_type = "f16"} : (tensor<2x32x40960xf32>, tensor<32xf32>, tensor<32xf32>) -> tensor<2x32x40960xf32>
    %922 = "dtu_hlir.shape"(%916) {end = 2147483647 : i64, node_name = "Shape_234-0", node_type = "Shape", start = 0 : i64, tif_quantize_type = "f16"} : (tensor<2x320x64x64xf32>) -> tensor<4xi64>
    %923 = "dtu_hlir.dynamic_reshape"(%921, %922) {allowzero = 0 : i64, node_name = "Reshape_235-0", node_type = "Reshape", tif_quantize_type = "f16"} : (tensor<2x32x40960xf32>, tensor<4xi64>) -> tensor<2x320x64x64xf32>
    %924 = "dtu_hlir.mul"(%923, %372) {broadcast_dimensions = dense<[1, 2, 3]> : tensor<3xi64>, node_name = "Mul_236-0", node_type = "Mul", tif_quantize_type = "f16"} : (tensor<2x320x64x64xf32>, tensor<320x1x1xf32>) -> tensor<2x320x64x64xf32>
    %925 = "dtu_hlir.add"(%924, %373) {broadcast_dimensions = dense<[1, 2, 3]> : tensor<3xi64>, node_name = "Add_237-0", node_type = "Add", tif_quantize_type = "f16"} : (tensor<2x320x64x64xf32>, tensor<320x1x1xf32>) -> tensor<2x320x64x64xf32>
    %926 = "dtu_hlir.sigmoid"(%925) {node_name = "Sigmoid_238-0", node_type = "Sigmoid", tif_quantize_type = "f16"} : (tensor<2x320x64x64xf32>) -> tensor<2x320x64x64xf32>
    %927 = "dtu_hlir.mul"(%925, %926) {broadcast_dimensions = dense<[0, 1, 2, 3]> : tensor<4xi64>, node_name = "Mul_239-0", node_type = "Mul", tif_quantize_type = "f16"} : (tensor<2x320x64x64xf32>, tensor<2x320x64x64xf32>) -> tensor<2x320x64x64xf32>
    %928 = "dtu_hlir.conv_bias"(%927, %30, %31) {batch_group_count = 1 : i64, dimension_numbers = {input_batch_dimension = 0 : i64, input_feature_dimension = 1 : i64, input_spatial_dimensions = dense<[2, 3]> : tensor<2xi64>, kernel_input_feature_dimension = 1 : i64, kernel_output_feature_dimension = 0 : i64, kernel_spatial_dimensions = dense<[2, 3]> : tensor<2xi64>, output_batch_dimension = 0 : i64, output_feature_dimension = 1 : i64, output_spatial_dimensions = dense<[2, 3]> : tensor<2xi64>}, feature_group_count = 1 : i64, lhs_dilation = dense<1> : tensor<2xi64>, node_name = "Conv_240-0", node_type = "Conv", padding = dense<1> : tensor<4xi64>, rhs_dilation = dense<1> : tensor<2xi64>, tif_quantize_type = "f16", window_strides = dense<1> : tensor<2xi64>} : (tensor<2x320x64x64xf32>, tensor<320x320x3x3xf32>, tensor<320xf32>) -> tensor<2x320x64x64xf32>
    %929 = "dtu_hlir.sigmoid"(%915) {node_name = "Sigmoid_241-0", node_type = "Sigmoid", tif_quantize_type = "f16"} : (tensor<2x1280xf32>) -> tensor<2x1280xf32>
    %930 = "dtu_hlir.mul"(%915, %929) {broadcast_dimensions = dense<[0, 1]> : tensor<2xi64>, node_name = "Mul_242-0", node_type = "Mul", tif_quantize_type = "f16"} : (tensor<2x1280xf32>, tensor<2x1280xf32>) -> tensor<2x1280xf32>
    %931 = "dtu_hlir.transpose"(%32) {node_name = "Gemm_243-Transpose-0", node_type = "Gemm", permutation = dense<[1, 0]> : tensor<2xi64>, tif_quantize_type = "f16"} : (tensor<320x1280xf32>) -> tensor<1280x320xf32>
    %932 = "dtu_hlir.gemm"(%930, %931, %33) {alpha = 1.000000e+00 : f32, beta = 1.000000e+00 : f32, node_name = "Gemm_243-1", node_type = "Gemm", tif_quantize_type = "f16", transA = 0 : i64, transB = 0 : i64} : (tensor<2x1280xf32>, tensor<1280x320xf32>, tensor<320xf32>) -> tensor<2x320xf32>
    %933 = dtu_hlir.constant  {node_name = "Constant_244-0", node_type = "Constant"} dense<2> : tensor<1xi64>
    %934 = "dtu_hlir.unsqueeze"(%932, %933) {node_name = "Unsqueeze_245-0", node_type = "Unsqueeze", tif_quantize_type = "f16"} : (tensor<2x320xf32>, tensor<1xi64>) -> tensor<2x320x1xf32>
    %935 = dtu_hlir.constant  {node_name = "Constant_246-0", node_type = "Constant"} dense<3> : tensor<1xi64>
    %936 = "dtu_hlir.unsqueeze"(%934, %935) {node_name = "Unsqueeze_247-0", node_type = "Unsqueeze", tif_quantize_type = "f16"} : (tensor<2x320x1xf32>, tensor<1xi64>) -> tensor<2x320x1x1xf32>
    %937 = "dtu_hlir.add"(%928, %936) {broadcast_dimensions = dense<[0, 1, 2, 3]> : tensor<4xi64>, node_name = "Add_248-0", node_type = "Add", tif_quantize_type = "f16"} : (tensor<2x320x64x64xf32>, tensor<2x320x1x1xf32>) -> tensor<2x320x64x64xf32>
    %938 = dtu_hlir.constant  {node_name = "Constant_249-0", node_type = "Constant"} dense<[0, 32, -1]> : tensor<3xi64>
    %939 = "dtu_hlir.dynamic_reshape"(%937, %938) {allowzero = 0 : i64, node_name = "Reshape_250-0", node_type = "Reshape", tif_quantize_type = "f16"} : (tensor<2x320x64x64xf32>, tensor<3xi64>) -> tensor<2x32x40960xf32>
    %940 = dtu_hlir.constant  {node_name = "Constant_251-0", node_type = "Constant"} dense<1.000000e+00> : tensor<32xf32>
    %941 = dtu_hlir.constant  {node_name = "Constant_252-0", node_type = "Constant"} dense<0.000000e+00> : tensor<32xf32>
    %942 = "dtu_hlir.instance_norm"(%939, %940, %941) {epsilon = 9.99999974E-6 : f32, layout = {batch_dimension = 0 : i64, feature_dimension = 1 : i64, spatial_dimensions = dense<2> : tensor<1xi64>}, node_name = "InstanceNormalization_253-0", node_type = "InstanceNormalization", tif_quantize_type = "f16"} : (tensor<2x32x40960xf32>, tensor<32xf32>, tensor<32xf32>) -> tensor<2x32x40960xf32>
    %943 = "dtu_hlir.shape"(%937) {end = 2147483647 : i64, node_name = "Shape_254-0", node_type = "Shape", start = 0 : i64, tif_quantize_type = "f16"} : (tensor<2x320x64x64xf32>) -> tensor<4xi64>
    %944 = "dtu_hlir.dynamic_reshape"(%942, %943) {allowzero = 0 : i64, node_name = "Reshape_255-0", node_type = "Reshape", tif_quantize_type = "f16"} : (tensor<2x32x40960xf32>, tensor<4xi64>) -> tensor<2x320x64x64xf32>
    %945 = "dtu_hlir.mul"(%944, %374) {broadcast_dimensions = dense<[1, 2, 3]> : tensor<3xi64>, node_name = "Mul_256-0", node_type = "Mul", tif_quantize_type = "f16"} : (tensor<2x320x64x64xf32>, tensor<320x1x1xf32>) -> tensor<2x320x64x64xf32>
    %946 = "dtu_hlir.add"(%945, %375) {broadcast_dimensions = dense<[1, 2, 3]> : tensor<3xi64>, node_name = "Add_257-0", node_type = "Add", tif_quantize_type = "f16"} : (tensor<2x320x64x64xf32>, tensor<320x1x1xf32>) -> tensor<2x320x64x64xf32>
    %947 = "dtu_hlir.sigmoid"(%946) {node_name = "Sigmoid_258-0", node_type = "Sigmoid", tif_quantize_type = "f16"} : (tensor<2x320x64x64xf32>) -> tensor<2x320x64x64xf32>
    %948 = "dtu_hlir.mul"(%946, %947) {broadcast_dimensions = dense<[0, 1, 2, 3]> : tensor<4xi64>, node_name = "Mul_259-0", node_type = "Mul", tif_quantize_type = "f16"} : (tensor<2x320x64x64xf32>, tensor<2x320x64x64xf32>) -> tensor<2x320x64x64xf32>
    %949 = "dtu_hlir.conv_bias"(%948, %34, %35) {batch_group_count = 1 : i64, dimension_numbers = {input_batch_dimension = 0 : i64, input_feature_dimension = 1 : i64, input_spatial_dimensions = dense<[2, 3]> : tensor<2xi64>, kernel_input_feature_dimension = 1 : i64, kernel_output_feature_dimension = 0 : i64, kernel_spatial_dimensions = dense<[2, 3]> : tensor<2xi64>, output_batch_dimension = 0 : i64, output_feature_dimension = 1 : i64, output_spatial_dimensions = dense<[2, 3]> : tensor<2xi64>}, feature_group_count = 1 : i64, lhs_dilation = dense<1> : tensor<2xi64>, node_name = "Conv_260-0", node_type = "Conv", padding = dense<1> : tensor<4xi64>, rhs_dilation = dense<1> : tensor<2xi64>, tif_quantize_type = "f16", window_strides = dense<1> : tensor<2xi64>} : (tensor<2x320x64x64xf32>, tensor<320x320x3x3xf32>, tensor<320xf32>) -> tensor<2x320x64x64xf32>
    %950 = "dtu_hlir.add"(%916, %949) {broadcast_dimensions = dense<[0, 1, 2, 3]> : tensor<4xi64>, node_name = "Add_261-0", node_type = "Add", tif_quantize_type = "f16"} : (tensor<2x320x64x64xf32>, tensor<2x320x64x64xf32>) -> tensor<2x320x64x64xf32>
    %951 = dtu_hlir.constant  {node_name = "Constant_262-0", node_type = "Constant"} dense<1.000000e+00> : tensor<f32>
    %952 = "dtu_hlir.broadcast_in_dim"(%951) {node_name = "Div_263-0_hlir_0", node_type = "Div", tif_quantize_type = "f16"} : (tensor<f32>) -> tensor<2x320x64x64xf32>
    %953 = "dtu_hlir.div"(%950, %952) {node_name = "Div_263-0", node_type = "Div", tif_quantize_type = "f16"} : (tensor<2x320x64x64xf32>, tensor<2x320x64x64xf32>) -> tensor<2x320x64x64xf32>
    %954 = "dtu_hlir.shape"(%953) {end = 2147483647 : i64, node_name = "Shape_264-0", node_type = "Shape", start = 0 : i64, tif_quantize_type = "f16"} : (tensor<2x320x64x64xf32>) -> tensor<4xi64>
    %955 = dtu_hlir.constant  {node_name = "Constant_265-0", node_type = "Constant"} dense<0> : tensor<i64>
    %956 = "dtu_hlir.gather"(%954, %955) {dimension_numbers = {collapsed_slice_dims = dense<0> : tensor<1xi64>, index_vector_dim = 0 : i64, offset_dims = dense<[]> : tensor<0xi64>, start_index_map = dense<0> : tensor<1xi64>}, indices_are_sorted = false, node_name = "Gather_266-0", node_type = "Gather", slice_sizes = dense<1> : tensor<1xi64>, tif_quantize_type = "f16"} : (tensor<4xi64>, tensor<i64>) -> tensor<i64>
…
    %2166 = "dtu_hlir.transpose"(%2165) {node_name = "Transpose_7549-0", node_type = "Transpose", op_id = 1112 : i64, permutation = dense<[0, 2, 1, 3]> : tensor<4xi64>, unique_name = "transpose_dtu"} : (tensor<2x4096x5x64xf16>) -> tensor<2x5x4096x64xf16>
    %2167 = "dtu_hlir.reshape"(%2166) {node_name = "Reshape_7563-0"} : (tensor<2x5x4096x64xf16>) -> tensor<10x4096x64xf16>
    %2168 = "dtu_hlir.transpose"(%2164) {node_name = "Transpose_7581-0", node_type = "Transpose", op_id = 1113 : i64, permutation = dense<[0, 2, 1]> : tensor<3xi64>, unique_name = "transpose_dtu"} : (tensor<10x4096x64xf16>) -> tensor<10x64x4096xf16>
    %2169 = "dtu_hlir.dot_general"(%2161, %2168) {dot_dimension_numbers = {lhs_batching_dimensions = dense<0> : tensor<1xi64>, lhs_contracting_dimensions = dense<2> : tensor<1xi64>, rhs_batching_dimensions = dense<0> : tensor<1xi64>, rhs_contracting_dimensions = dense<1> : tensor<1xi64>}, node_name = "MatMul_7582-0", node_type = "MatMul", op_id = 1114 : i64, unique_name = "dot_general_dtu"} : (tensor<10x4096x64xf16>, tensor<10x64x4096xf16>) -> tensor<10x4096x4096xf16>
    %2170 = "dtu_hlir.fusion"(%267, %2169) ( {
    ^bb0(%arg3: tensor<1xf16>, %arg4: tensor<10x4096x4096xf16>):	// no predecessors
      %2329 = "dtu_hlir.broadcast_in_dim"(%arg3) {broadcast_dimensions = dense<[]> : tensor<0xi64>, node_name = "Mul_438-0_hlir_0", node_type = "Mul"} : (tensor<1xf16>) -> tensor<10x4096x4096xf16>
      %2330 = "dtu_hlir.mul"(%arg4, %2329) {node_name = "Mul_7583-0", node_type = "Mul"} : (tensor<10x4096x4096xf16>, tensor<10x4096x4096xf16>) -> tensor<10x4096x4096xf16>
      "dtu_hlir.return"(%2330) : (tensor<10x4096x4096xf16>) -> ()
    }) {fusion_kind = 1 : i32, fusion_name = "ElementWise", op_id = 1115 : i64, unique_name = "elementwise_fusion_dtu"} : (tensor<1xf16>, tensor<10x4096x4096xf16>) -> tensor<10x4096x4096xf16>
    %2171 = "dtu_hlir.softmax"(%2170) {accurate = true, axis = -1 : i64, epsilon = 0.000000e+00 : f32, logarithmic = false, node_name = "Softmax_7586-0", node_type = "Softmax", op_id = 1116 : i64, unique_name = "common20_softmax"} : (tensor<10x4096x4096xf16>) -> tensor<10x4096x4096xf16>
    %2172 = "dtu_hlir.dot_general"(%2171, %2167) {dot_dimension_numbers = {lhs_batching_dimensions = dense<0> : tensor<1xi64>, lhs_contracting_dimensions = dense<2> : tensor<1xi64>, rhs_batching_dimensions = dense<0> : tensor<1xi64>, rhs_contracting_dimensions = dense<1> : tensor<1xi64>}, node_name = "MatMul_7588-0", node_type = "MatMul", op_id = 1117 : i64, unique_name = "dot_general_dtu"} : (tensor<10x4096x4096xf16>, tensor<10x4096x64xf16>) -> tensor<10x4096x64xf16>
    %2173 = "dtu_hlir.reshape"(%2172) {node_name = "Reshape_7609-0"} : (tensor<10x4096x64xf16>) -> tensor<2x5x4096x64xf16>
    %2174 = "dtu_hlir.transpose"(%2173) {node_name = "Transpose_7610-0", node_type = "Transpose", op_id = 1118 : i64, permutation = dense<[0, 2, 1, 3]> : tensor<4xi64>, unique_name = "transpose_dtu"} : (tensor<2x5x4096x64xf16>) -> tensor<2x4096x5x64xf16>
    %2175 = "dtu_hlir.reshape"(%2174) {node_name = "Reshape_7624-0"} : (tensor<2x4096x5x64xf16>) -> tensor<2x4096x320xf16>
    %2176 = "dtu_hlir.dot_general_bias"(%2175, %436, %214) {dot_dimension_numbers = {lhs_batching_dimensions = dense<0> : tensor<1xi64>, lhs_contracting_dimensions = dense<2> : tensor<1xi64>, rhs_batching_dimensions = dense<[]> : tensor<0xi64>, rhs_contracting_dimensions = dense<0> : tensor<1xi64>}, node_name = "Add_7626-0", op_id = 1119 : i64, unique_name = "dorado_dot_general_bias_dtu"} : (tensor<2x4096x320xf16>, tensor<320x320xf16>, tensor<320xf32>) -> tensor<2x4096x320xf16>
    %2177 = "dtu_hlir.add"(%2176, %2154) {node_name = "Add_7627-0", node_type = "Add", op_id = 1120 : i64, unique_name = "elementwise_add_dtu"} : (tensor<2x4096x320xf16>, tensor<2x4096x320xf16>) -> tensor<2x4096x320xf16>
    %2178 = "dtu_hlir.layer_norm_inference"(%2177, %220, %221) {axis = 2 : i64, epsilon = 9.99999974E-6 : f32, ln_type = 0 : i64, node_name = "Add_7638-0", op_id = 1121 : i64, unique_name = "layer_norm_inference_dtu"} : (tensor<2x4096x320xf16>, tensor<320xf32>, tensor<320xf32>) -> tensor<2x4096x320xf16>
    %2179 = "dtu_hlir.dot_general"(%2178, %437) {dot_dimension_numbers = {lhs_batching_dimensions = dense<0> : tensor<1xi64>, lhs_contracting_dimensions = dense<2> : tensor<1xi64>, rhs_batching_dimensions = dense<[]> : tensor<0xi64>, rhs_contracting_dimensions = dense<0> : tensor<1xi64>}, node_name = "MatMul_7639-0", node_type = "MatMul", op_id = 1122 : i64, unique_name = "dot_general_dtu"} : (tensor<2x4096x320xf16>, tensor<320x320xf16>) -> tensor<2x4096x320xf16>
    %2180 = "dtu_hlir.dot_general"(%4, %438) {dot_dimension_numbers = {lhs_batching_dimensions = dense<0> : tensor<1xi64>, lhs_contracting_dimensions = dense<2> : tensor<1xi64>, rhs_batching_dimensions = dense<[]> : tensor<0xi64>, rhs_contracting_dimensions = dense<0> : tensor<1xi64>}, node_name = "MatMul_7640-0", node_type = "MatMul", op_id = 1123 : i64, unique_name = "dot_general_dtu"} : (tensor<2x77x1024xf16>, tensor<1024x320xf16>) -> tensor<2x77x320xf16>
    %2181 = "dtu_hlir.dot_general"(%4, %439) {dot_dimension_numbers = {lhs_batching_dimensions = dense<0> : tensor<1xi64>, lhs_contracting_dimensions = dense<2> : tensor<1xi64>, rhs_batching_dimensions = dense<[]> : tensor<0xi64>, rhs_contracting_dimensions = dense<0> : tensor<1xi64>}, node_name = "MatMul_7641-0", node_type = "MatMul", op_id = 1124 : i64, unique_name = "dot_general_dtu"} : (tensor<2x77x1024xf16>, tensor<1024x320xf16>) -> tensor<2x77x320xf16>
    %2182 = "dtu_hlir.reshape"(%2179) {node_name = "Reshape_7662-0"} : (tensor<2x4096x320xf16>) -> tensor<2x4096x5x64xf16>
    %2183 = "dtu_hlir.transpose"(%2182) {node_name = "Transpose_7663-0", node_type = "Transpose", op_id = 1125 : i64, permutation = dense<[0, 2, 1, 3]> : tensor<4xi64>, unique_name = "transpose_dtu"} : (tensor<2x4096x5x64xf16>) -> tensor<2x5x4096x64xf16>
    %2184 = "dtu_hlir.reshape"(%2183) {node_name = "Reshape_7677-0"} : (tensor<2x5x4096x64xf16>) -> tensor<10x4096x64xf16>
    %2185 = "dtu_hlir.reshape"(%2180) {node_name = "Reshape_7698-0"} : (tensor<2x77x320xf16>) -> tensor<2x77x5x64xf16>
    %2186 = "dtu_hlir.transpose"(%2185) {node_name = "Transpose_7699-0", node_type = "Transpose", op_id = 1126 : i64, permutation = dense<[0, 2, 1, 3]> : tensor<4xi64>, unique_name = "transpose_dtu"} : (tensor<2x77x5x64xf16>) -> tensor<2x5x77x64xf16>
    %2187 = "dtu_hlir.reshape"(%2186) {node_name = "Reshape_7713-0"} : (tensor<2x5x77x64xf16>) -> tensor<10x77x64xf16>
    %2188 = "dtu_hlir.reshape"(%2181) {node_name = "Reshape_7734-0"} : (tensor<2x77x320xf16>) -> tensor<2x77x5x64xf16>
    %2189 = "dtu_hlir.transpose"(%2188) {node_name = "Transpose_7735-0", node_type = "Transpose", op_id = 1127 : i64, permutation = dense<[0, 2, 1, 3]> : tensor<4xi64>, unique_name = "transpose_dtu"} : (tensor<2x77x5x64xf16>) -> tensor<2x5x77x64xf16>
    %2190 = "dtu_hlir.reshape"(%2189) {node_name = "Reshape_7749-0"} : (tensor<2x5x77x64xf16>) -> tensor<10x77x64xf16>
    %2191 = "dtu_hlir.transpose"(%2187) {node_name = "Transpose_7767-0", node_type = "Transpose", op_id = 1128 : i64, permutation = dense<[0, 2, 1]> : tensor<3xi64>, unique_name = "transpose_dtu"} : (tensor<10x77x64xf16>) -> tensor<10x64x77xf16>
    %2192 = "dtu_hlir.dot_general"(%2184, %2191) {dot_dimension_numbers = {lhs_batching_dimensions = dense<0> : tensor<1xi64>, lhs_contracting_dimensions = dense<2> : tensor<1xi64>, rhs_batching_dimensions = dense<0> : tensor<1xi64>, rhs_contracting_dimensions = dense<1> : tensor<1xi64>}, node_name = "MatMul_7768-0", node_type = "MatMul", op_id = 1129 : i64, unique_name = "dot_general_dtu"} : (tensor<10x4096x64xf16>, tensor<10x64x77xf16>) -> tensor<10x4096x77xf16>
    %2193 = "dtu_hlir.fusion"(%267, %2192) ( {
    ^bb0(%arg3: tensor<1xf16>, %arg4: tensor<10x4096x77xf16>):	// no predecessors
      %2329 = "dtu_hlir.broadcast_in_dim"(%arg3) {broadcast_dimensions = dense<[]> : tensor<0xi64>, node_name = "Mul_624-0_hlir_0", node_type = "Mul"} : (tensor<1xf16>) -> tensor<10x4096x77xf16>
      %2330 = "dtu_hlir.mul"(%arg4, %2329) {node_name = "Mul_7769-0", node_type = "Mul"} : (tensor<10x4096x77xf16>, tensor<10x4096x77xf16>) -> tensor<10x4096x77xf16>
      "dtu_hlir.return"(%2330) : (tensor<10x4096x77xf16>) -> ()
    }) {fusion_kind = 1 : i32, fusion_name = "ElementWise", op_id = 1130 : i64, unique_name = "elementwise_fusion_dtu"} : (tensor<1xf16>, tensor<10x4096x77xf16>) -> tensor<10x4096x77xf16>
    %2194 = "dtu_hlir.softmax"(%2193) {accurate = true, axis = -1 : i64, epsilon = 0.000000e+00 : f32, logarithmic = false, node_name = "Softmax_7772-0", node_type = "Softmax", op_id = 1131 : i64, unique_name = "common20_softmax"} : (tensor<10x4096x77xf16>) -> tensor<10x4096x77xf16>
    %2195 = "dtu_hlir.dot_general"(%2194, %2190) {dot_dimension_numbers = {lhs_batching_dimensions = dense<0> : tensor<1xi64>, lhs_contracting_dimensions = dense<2> : tensor<1xi64>, rhs_batching_dimensions = dense<0> : tensor<1xi64>, rhs_contracting_dimensions = dense<1> : tensor<1xi64>}, node_name = "MatMul_7774-0", node_type = "MatMul", op_id = 1132 : i64, unique_name = "dot_general_dtu"} : (tensor<10x4096x77xf16>, tensor<10x77x64xf16>) -> tensor<10x4096x64xf16>
    %2196 = "dtu_hlir.reshape"(%2195) {node_name = "Reshape_7795-0"} : (tensor<10x4096x64xf16>) -> tensor<2x5x4096x64xf16>
    %2197 = "dtu_hlir.transpose"(%2196) {node_name = "Transpose_7796-0", node_type = "Transpose", op_id = 1133 : i64, permutation = dense<[0, 2, 1, 3]> : tensor<4xi64>, unique_name = "transpose_dtu"} : (tensor<2x5x4096x64xf16>) -> tensor<2x4096x5x64xf16>
    %2198 = "dtu_hlir.reshape"(%2197) {node_name = "Reshape_7810-0"} : (tensor<2x4096x5x64xf16>) -> tensor<2x4096x320xf16>
    %2199 = "dtu_hlir.dot_general_bias"(%2198, %440, %217) {dot_dimension_numbers = {lhs_batching_dimensions = dense<0> : tensor<1xi64>, lhs_contracting_dimensions = dense<2> : tensor<1xi64>, rhs_batching_dimensions = dense<[]> : tensor<0xi64>, rhs_contracting_dimensions = dense<0> : tensor<1xi64>}, node_name = "Add_7812-0", op_id = 1134 : i64, unique_name = "dorado_dot_general_bias_dtu"} : (tensor<2x4096x320xf16>, tensor<320x320xf16>, tensor<320xf32>) -> tensor<2x4096x320xf16>
    %2200 = "dtu_hlir.add"(%2199, %2177) {node_name = "Add_7813-0", node_type = "Add", op_id = 1135 : i64, unique_name = "elementwise_add_dtu"} : (tensor<2x4096x320xf16>, tensor<2x4096x320xf16>) -> tensor<2x4096x320xf16>
    %2201 = "dtu_hlir.layer_norm_inference"(%2200, %222, %223) {axis = 2 : i64, epsilon = 9.99999974E-6 : f32, ln_type = 0 : i64, node_name = "Add_7824-0", op_id = 1136 : i64, unique_name = "layer_norm_inference_dtu"} : (tensor<2x4096x320xf16>, tensor<320xf32>, tensor<320xf32>) -> tensor<2x4096x320xf16>
    %2202 = "dtu_hlir.dot_general_bias"(%2201, %441, %215) {dot_dimension_numbers = {lhs_batching_dimensions = dense<0> : tensor<1xi64>, lhs_contracting_dimensions = dense<2> : tensor<1xi64>, rhs_batching_dimensions = dense<[]> : tensor<0xi64>, rhs_contracting_dimensions = dense<0> : tensor<1xi64>}, node_name = "Add_7826-0", op_id = 1137 : i64, unique_name = "dorado_dot_general_bias_dtu"} : (tensor<2x4096x320xf16>, tensor<320x2560xf16>, tensor<2560xf32>) -> tensor<2x4096x2560xf16>
    %2203 = "dtu_hlir.slice"(%2202) {limit_indices = dense<[2, 4096, 1280]> : tensor<3xi64>, node_name = "Slice_7837-1", op_id = 1138 : i64, start_indices = dense<0> : tensor<3xi64>, strides = dense<1> : tensor<3xi64>, unique_name = "slice_dtu"} : (tensor<2x4096x2560xf16>) -> tensor<2x4096x1280xf16>
    %2204 = "dtu_hlir.slice"(%2202) {limit_indices = dense<[2, 4096, 2560]> : tensor<3xi64>, node_name = "Slice_7840-3", op_id = 1139 : i64, start_indices = dense<[0, 0, 1280]> : tensor<3xi64>, strides = dense<1> : tensor<3xi64>, unique_name = "slice_dtu"} : (tensor<2x4096x2560xf16>) -> tensor<2x4096x1280xf16>
    %2205 = "dtu_hlir.gelu"(%2204) {approximate = false, node_name = "Mul_7848-0", op_id = 1140 : i64, unique_name = "common20_gelu"} : (tensor<2x4096x1280xf16>) -> tensor<2x4096x1280xf16>
    %2206 = "dtu_hlir.mul"(%2203, %2205) {node_name = "Mul_7849-0", node_type = "Mul", op_id = 1141 : i64, unique_name = "elementwise_mul_dtu"} : (tensor<2x4096x1280xf16>, tensor<2x4096x1280xf16>) -> tensor<2x4096x1280xf16>
    %2207 = "dtu_hlir.dot_general_bias"(%2206, %442, %216) {dot_dimension_numbers = {lhs_batching_dimensions = dense<0> : tensor<1xi64>, lhs_contracting_dimensions = dense<2> : tensor<1xi64>, rhs_batching_dimensions = dense<[]> : tensor<0xi64>, rhs_contracting_dimensions = dense<0> : tensor<1xi64>}, node_name = "Add_7851-0", op_id = 1142 : i64, unique_name = "dorado_dot_general_bias_dtu"} : (tensor<2x4096x1280xf16>, tensor<1280x320xf16>, tensor<320xf32>) -> tensor<2x4096x320xf16>
    %2208 = "dtu_hlir.add"(%2207, %2200) {node_name = "Add_7852-0", node_type = "Add", op_id = 1143 : i64, unique_name = "elementwise_add_dtu"} : (tensor<2x4096x320xf16>, tensor<2x4096x320xf16>) -> tensor<2x4096x320xf16>
    %2209 = "dtu_hlir.dot_general_bias"(%2208, %443, %224) {dot_dimension_numbers = {lhs_batching_dimensions = dense<0> : tensor<1xi64>, lhs_contracting_dimensions = dense<2> : tensor<1xi64>, rhs_batching_dimensions = dense<[]> : tensor<0xi64>, rhs_contracting_dimensions = dense<0> : tensor<1xi64>}, node_name = "Add_7854-0", op_id = 1144 : i64, unique_name = "dorado_dot_general_bias_dtu"} : (tensor<2x4096x320xf16>, tensor<320x320xf16>, tensor<320xf32>) -> tensor<2x4096x320xf16>
    %2210 = "dtu_hlir.reshape"(%2209) {node_name = "Reshape_7864-0"} : (tensor<2x4096x320xf16>) -> tensor<2x64x64x320xf16>
    %2211 = "dtu_hlir.add"(%2210, %2142) {node_name = "Add_7866-0", node_type = "Add", op_id = 1145 : i64, unique_name = "elementwise_add_dtu"} : (tensor<2x64x64x320xf16>, tensor<2x64x64x320xf16>) -> tensor<2x64x64x320xf16>
    %2212 = "dtu_hlir.concatenate"(%2211, %468) {dimension = 3 : i64, node_name = "Concat_7867-0", op_id = 1146 : i64, unique_name = "concatenate_dtu"} : (tensor<2x64x64x320xf16>, tensor<2x64x64x320xf16>) -> tensor<2x64x64x640xf16>
    %2213 = "dtu_hlir.transpose"(%2212) {node_name = "Transpose_7865-0", op_id = 1147 : i64, permutation = dense<[0, 3, 1, 2]> : tensor<4xi64>, unique_name = "transpose_dtu"} : (tensor<2x64x64x640xf16>) -> tensor<2x640x64x64xf16>
    %2214 = "dtu_hlir.reshape"(%2213) {node_name = "Reshape_7869-0"} : (tensor<2x640x64x64xf16>) -> tensor<2x32x81920xf16>
    %2215 = "dtu_hlir.transpose"(%2214) {node_name = "InstanceNormalization_7872-0", op_id = 1148 : i64, permutation = dense<[0, 2, 1]> : tensor<3xi64>, unique_name = "transpose_dtu"} : (tensor<2x32x81920xf16>) -> tensor<2x81920x32xf16>
    %2216 = "dtu_hlir.instance_norm"(%2215, %471, %472) {epsilon = 9.99999974E-6 : f32, layout = {batch_dimension = 0 : i64, feature_dimension = 2 : i64, spatial_dimensions = dense<1> : tensor<1xi64>}, op_id = 1149 : i64, unique_name = "instance_norm_dtu"} : (tensor<2x81920x32xf16>, tensor<32xf32>, tensor<32xf32>) -> tensor<2x81920x32xf16>
    %2217 = "dtu_hlir.transpose"(%2216) {node_name = "InstanceNormalization_7872-0", op_id = 1150 : i64, permutation = dense<[0, 2, 1]> : tensor<3xi64>, unique_name = "transpose_dtu"} : (tensor<2x81920x32xf16>) -> tensor<2x32x81920xf16>
    %2218 = "dtu_hlir.reshape"(%2217) {node_name = "Reshape_7874-0"} : (tensor<2x32x81920xf16>) -> tensor<2x640x64x64xf16>
    %2219 = dtu_hlir.constant  {node_name = "Mul_7875-0"} opaque<"", "0xDEADBEEF"> : tensor<2x640xf16>
    %2220 = dtu_hlir.constant  {node_name = "Add_7876-0"} opaque<"", "0xDEADBEEF"> : tensor<2x640xf16>
    %2221 = "dtu_hlir.fusion"(%2219, %2218, %2220) ( {
    ^bb0(%arg3: tensor<2x640xf16>, %arg4: tensor<2x640x64x64xf16>, %arg5: tensor<2x640xf16>):	// no predecessors
      %2329 = "dtu_hlir.broadcast_in_dim"(%arg3) {broadcast_dimensions = dense<[0, 1]> : tensor<2xi64>, node_name = "Mul_7875-0"} : (tensor<2x640xf16>) -> tensor<2x640x64x64xf16>
      %2330 = "dtu_hlir.mul"(%arg4, %2329) {node_name = "Mul_7875-0", node_type = "Mul"} : (tensor<2x640x64x64xf16>, tensor<2x640x64x64xf16>) -> tensor<2x640x64x64xf16>
      %2331 = "dtu_hlir.broadcast_in_dim"(%arg5) {broadcast_dimensions = dense<[0, 1]> : tensor<2xi64>, node_name = "Add_7876-0"} : (tensor<2x640xf16>) -> tensor<2x640x64x64xf16>
      %2332 = "dtu_hlir.add"(%2330, %2331) {node_name = "Add_7876-0", node_type = "Add"} : (tensor<2x640x64x64xf16>, tensor<2x640x64x64xf16>) -> tensor<2x640x64x64xf16>
      %2333 = "dtu_hlir.swish"(%2332) {node_name = "Mul_7878-0"} : (tensor<2x640x64x64xf16>) -> tensor<2x640x64x64xf16>
      "dtu_hlir.return"(%2333) : (tensor<2x640x64x64xf16>) -> ()
    }) {fusion_kind = 1 : i32, fusion_name = "ElementWise", op_id = 1151 : i64, unique_name = "elementwise_fusion_dtu"} : (tensor<2x640xf16>, tensor<2x640x64x64xf16>, tensor<2x640xf16>) -> tensor<2x640x64x64xf16>
    %2222 = dtu_hlir.constant  {node_name = "up_blocks.3.resnets.2.conv1.weight"} opaque<"", "0xDEADBEEF"> : tensor<3x3x640x320xf16>
    %2223 = "dtu_hlir.transpose"(%2221) {node_name = "Conv_7879-0", op_id = 1152 : i64, permutation = dense<[0, 2, 3, 1]> : tensor<4xi64>, unique_name = "transpose_dtu"} : (tensor<2x640x64x64xf16>) -> tensor<2x64x64x640xf16>
    %2224 = "dtu_hlir.conv_bias"(%2223, %2222, %243) {batch_group_count = 1 : i64, dimension_numbers = {input_batch_dimension = 0 : i64, input_feature_dimension = 3 : i64, input_spatial_dimensions = dense<[1, 2]> : vector<2xi64>, kernel_input_feature_dimension = 2 : i64, kernel_output_feature_dimension = 3 : i64, kernel_spatial_dimensions = dense<[0, 1]> : vector<2xi64>, output_batch_dimension = 0 : i64, output_feature_dimension = 3 : i64, output_spatial_dimensions = dense<[1, 2]> : vector<2xi64>}, feature_group_count = 1 : i64, lhs_dilation = dense<1> : tensor<2xi64>, node_name = "Conv_7879-0", op_id = 1153 : i64, padding = dense<1> : tensor<4xi64>, rhs_dilation = dense<1> : tensor<2xi64>, unique_name = "dorado_dtu_conv_bias_dtu", window_strides = dense<1> : tensor<2xi64>} : (tensor<2x64x64x640xf16>, tensor<3x3x640x320xf16>, tensor<320xf32>) -> tensor<2x64x64x320xf16>
    %2225 = dtu_hlir.constant opaque<"", "0xDEADBEEF"> : tensor<1280x320xf16>
    %2226 = dtu_hlir.constant opaque<"", "0xDEADBEEF"> : tensor<320xf32>
    %2227 = "dtu_hlir.fusion"(%464, %465, %466) ( {
    ^bb0(%arg3: tensor<2x1280xf16>, %arg4: tensor<1280x1280xf16>, %arg5: tensor<1280xf32>):	// no predecessors
      %2329 = "dtu_hlir.dot_general_bias"(%arg3, %arg4, %arg5) {dot_dimension_numbers = {lhs_batching_dimensions = dense<[]> : tensor<0xi64>, lhs_contracting_dimensions = dense<1> : tensor<1xi64>, rhs_batching_dimensions = dense<[]> : tensor<0xi64>, rhs_contracting_dimensions = dense<0> : tensor<1xi64>}, precision_config = ["DEFAULT", "DEFAULT"]} : (tensor<2x1280xf16>, tensor<1280x1280xf16>, tensor<1280xf32>) -> tensor<2x1280xf16>
      %2330 = "dtu_hlir.swish"(%2329) {node_name = "Mul_242-0"} : (tensor<2x1280xf16>) -> tensor<2x1280xf16>
      "dtu_hlir.return"(%2330) : (tensor<2x1280xf16>) -> ()
    }) {activate_func = "swish", fusion_kind = 38 : i32, fusion_name = "DotgBiasActivation", op_id = 1154 : i64, unique_name = "dorado_dot_general_bias_activation_dtu"} : (tensor<2x1280xf16>, tensor<1280x1280xf16>, tensor<1280xf32>) -> tensor<2x1280xf16>
    %2228 = "dtu_hlir.dot_general_bias"(%2227, %2225, %2226) {dot_dimension_numbers = {lhs_batching_dimensions = dense<[]> : tensor<0xi64>, lhs_contracting_dimensions = dense<1> : tensor<1xi64>, rhs_batching_dimensions = dense<[]> : tensor<0xi64>, rhs_contracting_dimensions = dense<0> : tensor<1xi64>}, op_id = 1155 : i64, precision_config = ["DEFAULT", "DEFAULT"], unique_name = "dorado_dot_general_bias_dtu"} : (tensor<2x1280xf16>, tensor<1280x320xf16>, tensor<320xf32>) -> tensor<2x320xf16>
    %2229 = "dtu_hlir.broadcast_in_dim"(%2228) {broadcast_dimensions = dense<[0, 3]> : tensor<2xi64>, op_id = 1156 : i64, unique_name = "common20_broadcast_in_dim"} : (tensor<2x320xf16>) -> tensor<2x64x64x320xf16>
    %2230 = "dtu_hlir.add"(%2224, %2229) {node_name = "Add_7887-0", node_type = "Add", op_id = 1157 : i64, unique_name = "elementwise_add_dtu"} : (tensor<2x64x64x320xf16>, tensor<2x64x64x320xf16>) -> tensor<2x64x64x320xf16>
    %2231 = "dtu_hlir.transpose"(%2230) {op_id = 1158 : i64, permutation = dense<[0, 3, 1, 2]> : tensor<4xi64>, unique_name = "transpose_dtu"} : (tensor<2x64x64x320xf16>) -> tensor<2x320x64x64xf16>
    %2232 = "dtu_hlir.reshape"(%2231) {node_name = "Reshape_7889-0"} : (tensor<2x320x64x64xf16>) -> tensor<2x32x40960xf16>
    %2233 = "dtu_hlir.transpose"(%2232) {node_name = "InstanceNormalization_7892-0", op_id = 1159 : i64, permutation = dense<[0, 2, 1]> : tensor<3xi64>, unique_name = "transpose_dtu"} : (tensor<2x32x40960xf16>) -> tensor<2x40960x32xf16>
    %2234 = "dtu_hlir.instance_norm"(%2233, %471, %472) {epsilon = 9.99999974E-6 : f32, layout = {batch_dimension = 0 : i64, feature_dimension = 2 : i64, spatial_dimensions = dense<1> : tensor<1xi64>}, op_id = 1160 : i64, unique_name = "instance_norm_dtu"} : (tensor<2x40960x32xf16>, tensor<32xf32>, tensor<32xf32>) -> tensor<2x40960x32xf16>
    %2235 = "dtu_hlir.transpose"(%2234) {node_name = "InstanceNormalization_7892-0", op_id = 1161 : i64, permutation = dense<[0, 2, 1]> : tensor<3xi64>, unique_name = "transpose_dtu"} : (tensor<2x40960x32xf16>) -> tensor<2x32x40960xf16>
    %2236 = "dtu_hlir.reshape"(%2235) {node_name = "Reshape_7894-0"} : (tensor<2x32x40960xf16>) -> tensor<2x320x64x64xf16>
    %2237 = dtu_hlir.constant  {node_name = "Mul_7895-0"} opaque<"", "0xDEADBEEF"> : tensor<2x320xf16>
    %2238 = dtu_hlir.constant  {node_name = "Add_7896-0"} opaque<"", "0xDEADBEEF"> : tensor<2x320xf16>
    %2239 = "dtu_hlir.fusion"(%2237, %2236, %2238) ( {
    ^bb0(%arg3: tensor<2x320xf16>, %arg4: tensor<2x320x64x64xf16>, %arg5: tensor<2x320xf16>):	// no predecessors
      %2329 = "dtu_hlir.broadcast_in_dim"(%arg3) {broadcast_dimensions = dense<[0, 1]> : tensor<2xi64>, node_name = "Mul_7895-0"} : (tensor<2x320xf16>) -> tensor<2x320x64x64xf16>
      %2330 = "dtu_hlir.mul"(%arg4, %2329) {node_name = "Mul_7895-0", node_type = "Mul"} : (tensor<2x320x64x64xf16>, tensor<2x320x64x64xf16>) -> tensor<2x320x64x64xf16>
      %2331 = "dtu_hlir.broadcast_in_dim"(%arg5) {broadcast_dimensions = dense<[0, 1]> : tensor<2xi64>, node_name = "Add_7896-0"} : (tensor<2x320xf16>) -> tensor<2x320x64x64xf16>
      %2332 = "dtu_hlir.add"(%2330, %2331) {node_name = "Add_7896-0", node_type = "Add"} : (tensor<2x320x64x64xf16>, tensor<2x320x64x64xf16>) -> tensor<2x320x64x64xf16>
      %2333 = "dtu_hlir.swish"(%2332) {node_name = "Mul_7898-0"} : (tensor<2x320x64x64xf16>) -> tensor<2x320x64x64xf16>
      "dtu_hlir.return"(%2333) : (tensor<2x320x64x64xf16>) -> ()
    }) {fusion_kind = 1 : i32, fusion_name = "ElementWise", op_id = 1162 : i64, unique_name = "elementwise_fusion_dtu"} : (tensor<2x320xf16>, tensor<2x320x64x64xf16>, tensor<2x320xf16>) -> tensor<2x320x64x64xf16>
    %2240 = dtu_hlir.constant  {node_name = "up_blocks.3.resnets.2.conv2.weight"} opaque<"", "0xDEADBEEF"> : tensor<3x3x320x320xf16>
    %2241 = "dtu_hlir.transpose"(%2239) {node_name = "Conv_7899-0", op_id = 1163 : i64, permutation = dense<[0, 2, 3, 1]> : tensor<4xi64>, unique_name = "transpose_dtu"} : (tensor<2x320x64x64xf16>) -> tensor<2x64x64x320xf16>
    %2242 = "dtu_hlir.conv_bias"(%2241, %2240, %244) {batch_group_count = 1 : i64, dimension_numbers = {input_batch_dimension = 0 : i64, input_feature_dimension = 3 : i64, input_spatial_dimensions = dense<[1, 2]> : vector<2xi64>, kernel_input_feature_dimension = 2 : i64, kernel_output_feature_dimension = 3 : i64, kernel_spatial_dimensions = dense<[0, 1]> : vector<2xi64>, output_batch_dimension = 0 : i64, output_feature_dimension = 3 : i64, output_spatial_dimensions = dense<[1, 2]> : vector<2xi64>}, feature_group_count = 1 : i64, lhs_dilation = dense<1> : tensor<2xi64>, node_name = "Conv_7899-0", op_id = 1164 : i64, padding = dense<1> : tensor<4xi64>, rhs_dilation = dense<1> : tensor<2xi64>, unique_name = "dorado_dtu_conv_bias_dtu", window_strides = dense<1> : tensor<2xi64>} : (tensor<2x64x64x320xf16>, tensor<3x3x320x320xf16>, tensor<320xf32>) -> tensor<2x64x64x320xf16>
    %2243 = dtu_hlir.constant  {node_name = "up_blocks.3.resnets.2.conv_shortcut.weight"} opaque<"", "0xDEADBEEF"> : tensor<1x1x640x320xf16>
    %2244 = "dtu_hlir.conv_bias"(%2212, %2243, %245) {batch_group_count = 1 : i64, dimension_numbers = {input_batch_dimension = 0 : i64, input_feature_dimension = 3 : i64, input_spatial_dimensions = dense<[1, 2]> : vector<2xi64>, kernel_input_feature_dimension = 2 : i64, kernel_output_feature_dimension = 3 : i64, kernel_spatial_dimensions = dense<[0, 1]> : vector<2xi64>, output_batch_dimension = 0 : i64, output_feature_dimension = 3 : i64, output_spatial_dimensions = dense<[1, 2]> : vector<2xi64>}, feature_group_count = 1 : i64, lhs_dilation = dense<1> : tensor<2xi64>, node_name = "Conv_7900-0", op_id = 1165 : i64, padding = dense<0> : tensor<4xi64>, rhs_dilation = dense<1> : tensor<2xi64>, unique_name = "dorado_dtu_conv_bias_dtu", window_strides = dense<1> : tensor<2xi64>} : (tensor<2x64x64x640xf16>, tensor<1x1x640x320xf16>, tensor<320xf32>) -> tensor<2x64x64x320xf16>
    %2245 = "dtu_hlir.add"(%2244, %2242) {node_name = "Add_7901-0", node_type = "Add", op_id = 1166 : i64, unique_name = "elementwise_add_dtu"} : (tensor<2x64x64x320xf16>, tensor<2x64x64x320xf16>) -> tensor<2x64x64x320xf16>
    %2246 = "dtu_hlir.transpose"(%2245) {node_name = "Conv_7900-0", op_id = 1167 : i64, permutation = dense<[0, 3, 1, 2]> : tensor<4xi64>, unique_name = "transpose_dtu"} : (tensor<2x64x64x320xf16>) -> tensor<2x320x64x64xf16>
    %2247 = "dtu_hlir.reshape"(%2246) {node_name = "Reshape_7914-0"} : (tensor<2x320x64x64xf16>) -> tensor<2x32x40960xf16>
    %2248 = "dtu_hlir.transpose"(%2247) {node_name = "InstanceNormalization_7917-0", op_id = 1168 : i64, permutation = dense<[0, 2, 1]> : tensor<3xi64>, unique_name = "transpose_dtu"} : (tensor<2x32x40960xf16>) -> tensor<2x40960x32xf16>
    %2249 = "dtu_hlir.instance_norm"(%2248, %471, %472) {epsilon = 9.99999997E-7 : f32, layout = {batch_dimension = 0 : i64, feature_dimension = 2 : i64, spatial_dimensions = dense<1> : tensor<1xi64>}, op_id = 1169 : i64, unique_name = "instance_norm_dtu"} : (tensor<2x40960x32xf16>, tensor<32xf32>, tensor<32xf32>) -> tensor<2x40960x32xf16>
    %2250 = "dtu_hlir.transpose"(%2249) {node_name = "InstanceNormalization_7917-0", op_id = 1170 : i64, permutation = dense<[0, 2, 1]> : tensor<3xi64>, unique_name = "transpose_dtu"} : (tensor<2x40960x32xf16>) -> tensor<2x32x40960xf16>
    %2251 = "dtu_hlir.reshape"(%2250) {node_name = "Reshape_7919-0"} : (tensor<2x32x40960xf16>) -> tensor<2x320x64x64xf16>
    %2252 = dtu_hlir.constant  {node_name = "Mul_7920-0"} opaque<"", "0xDEADBEEF"> : tensor<2x320xf16>
    %2253 = dtu_hlir.constant  {node_name = "Add_7921-0"} opaque<"", "0xDEADBEEF"> : tensor<2x320xf16>
    %2254 = "dtu_hlir.fusion"(%2252, %2251, %2253) ( {
    ^bb0(%arg3: tensor<2x320xf16>, %arg4: tensor<2x320x64x64xf16>, %arg5: tensor<2x320xf16>):	// no predecessors
      %2329 = "dtu_hlir.broadcast_in_dim"(%arg3) {broadcast_dimensions = dense<[0, 1]> : tensor<2xi64>, node_name = "Mul_7920-0"} : (tensor<2x320xf16>) -> tensor<2x320x64x64xf16>
      %2330 = "dtu_hlir.mul"(%arg4, %2329) {node_name = "Mul_7920-0", node_type = "Mul"} : (tensor<2x320x64x64xf16>, tensor<2x320x64x64xf16>) -> tensor<2x320x64x64xf16>
      %2331 = "dtu_hlir.broadcast_in_dim"(%arg5) {broadcast_dimensions = dense<[0, 1]> : tensor<2xi64>, node_name = "Add_7921-0"} : (tensor<2x320xf16>) -> tensor<2x320x64x64xf16>
      %2332 = "dtu_hlir.add"(%2330, %2331) {node_name = "Add_7921-0", node_type = "Add"} : (tensor<2x320x64x64xf16>, tensor<2x320x64x64xf16>) -> tensor<2x320x64x64xf16>
      "dtu_hlir.return"(%2332) : (tensor<2x320x64x64xf16>) -> ()
    }) {fusion_kind = 1 : i32, fusion_name = "ElementWise", op_id = 1171 : i64, unique_name = "elementwise_fusion_dtu"} : (tensor<2x320xf16>, tensor<2x320x64x64xf16>, tensor<2x320xf16>) -> tensor<2x320x64x64xf16>
    %2255 = "dtu_hlir.transpose"(%2254) {node_name = "Transpose_7925-0", node_type = "Transpose", op_id = 1172 : i64, permutation = dense<[0, 2, 3, 1]> : tensor<4xi64>, unique_name = "transpose_dtu"} : (tensor<2x320x64x64xf16>) -> tensor<2x64x64x320xf16>
    %2256 = "dtu_hlir.reshape"(%2255) {node_name = "Reshape_7934-0"} : (tensor<2x64x64x320xf16>) -> tensor<2x4096x320xf16>
    %2257 = "dtu_hlir.dot_general_bias"(%2256, %444, %225) {dot_dimension_numbers = {lhs_batching_dimensions = dense<0> : tensor<1xi64>, lhs_contracting_dimensions = dense<2> : tensor<1xi64>, rhs_batching_dimensions = dense<[]> : tensor<0xi64>, rhs_contracting_dimensions = dense<0> : tensor<1xi64>}, node_name = "Add_7936-0", op_id = 1173 : i64, unique_name = "dorado_dot_general_bias_dtu"} : (tensor<2x4096x320xf16>, tensor<320x320xf16>, tensor<320xf32>) -> tensor<2x4096x320xf16>
    %2258 = "dtu_hlir.layer_norm_inference"(%2257, %230, %231) {axis = 2 : i64, epsilon = 9.99999974E-6 : f32, ln_type = 0 : i64, node_name = "Add_7947-0", op_id = 1174 : i64, unique_name = "layer_norm_inference_dtu"} : (tensor<2x4096x320xf16>, tensor<320xf32>, tensor<320xf32>) -> tensor<2x4096x320xf16>
    %2259 = "dtu_hlir.dot_general"(%2258, %445) {dot_dimension_numbers = {lhs_batching_dimensions = dense<0> : tensor<1xi64>, lhs_contracting_dimensions = dense<2> : tensor<1xi64>, rhs_batching_dimensions = dense<[]> : tensor<0xi64>, rhs_contracting_dimensions = dense<0> : tensor<1xi64>}, node_name = "MatMul_7948-0", node_type = "MatMul", op_id = 1175 : i64, unique_name = "dot_general_dtu"} : (tensor<2x4096x320xf16>, tensor<320x320xf16>) -> tensor<2x4096x320xf16>
    %2260 = "dtu_hlir.dot_general"(%2258, %446) {dot_dimension_numbers = {lhs_batching_dimensions = dense<0> : tensor<1xi64>, lhs_contracting_dimensions = dense<2> : tensor<1xi64>, rhs_batching_dimensions = dense<[]> : tensor<0xi64>, rhs_contracting_dimensions = dense<0> : tensor<1xi64>}, node_name = "MatMul_7949-0", node_type = "MatMul", op_id = 1176 : i64, unique_name = "dot_general_dtu"} : (tensor<2x4096x320xf16>, tensor<320x320xf16>) -> tensor<2x4096x320xf16>
    %2261 = "dtu_hlir.dot_general"(%2258, %447) {dot_dimension_numbers = {lhs_batching_dimensions = dense<0> : tensor<1xi64>, lhs_contracting_dimensions = dense<2> : tensor<1xi64>, rhs_batching_dimensions = dense<[]> : tensor<0xi64>, rhs_contracting_dimensions = dense<0> : tensor<1xi64>}, node_name = "MatMul_7950-0", node_type = "MatMul", op_id = 1177 : i64, unique_name = "dot_general_dtu"} : (tensor<2x4096x320xf16>, tensor<320x320xf16>) -> tensor<2x4096x320xf16>
    %2262 = "dtu_hlir.reshape"(%2259) {node_name = "Reshape_7971-0"} : (tensor<2x4096x320xf16>) -> tensor<2x4096x5x64xf16>
    %2263 = "dtu_hlir.transpose"(%2262) {node_name = "Transpose_7972-0", node_type = "Transpose", op_id = 1178 : i64, permutation = dense<[0, 2, 1, 3]> : tensor<4xi64>, unique_name = "transpose_dtu"} : (tensor<2x4096x5x64xf16>) -> tensor<2x5x4096x64xf16>
    %2264 = "dtu_hlir.reshape"(%2263) {node_name = "Reshape_7986-0"} : (tensor<2x5x4096x64xf16>) -> tensor<10x4096x64xf16>
    %2265 = "dtu_hlir.reshape"(%2260) {node_name = "Reshape_8007-0"} : (tensor<2x4096x320xf16>) -> tensor<2x4096x5x64xf16>
    %2266 = "dtu_hlir.transpose"(%2265) {node_name = "Transpose_8008-0", node_type = "Transpose", op_id = 1179 : i64, permutation = dense<[0, 2, 1, 3]> : tensor<4xi64>, unique_name = "transpose_dtu"} : (tensor<2x4096x5x64xf16>) -> tensor<2x5x4096x64xf16>
    %2267 = "dtu_hlir.reshape"(%2266) {node_name = "Reshape_8022-0"} : (tensor<2x5x4096x64xf16>) -> tensor<10x4096x64xf16>
    %2268 = "dtu_hlir.reshape"(%2261) {node_name = "Reshape_8043-0"} : (tensor<2x4096x320xf16>) -> tensor<2x4096x5x64xf16>
    %2269 = "dtu_hlir.transpose"(%2268) {node_name = "Transpose_8044-0", node_type = "Transpose", op_id = 1180 : i64, permutation = dense<[0, 2, 1, 3]> : tensor<4xi64>, unique_name = "transpose_dtu"} : (tensor<2x4096x5x64xf16>) -> tensor<2x5x4096x64xf16>
    %2270 = "dtu_hlir.reshape"(%2269) {node_name = "Reshape_8058-0"} : (tensor<2x5x4096x64xf16>) -> tensor<10x4096x64xf16>
    %2271 = "dtu_hlir.transpose"(%2267) {node_name = "Transpose_8076-0", node_type = "Transpose", op_id = 1181 : i64, permutation = dense<[0, 2, 1]> : tensor<3xi64>, unique_name = "transpose_dtu"} : (tensor<10x4096x64xf16>) -> tensor<10x64x4096xf16>
    %2272 = "dtu_hlir.dot_general"(%2264, %2271) {dot_dimension_numbers = {lhs_batching_dimensions = dense<0> : tensor<1xi64>, lhs_contracting_dimensions = dense<2> : tensor<1xi64>, rhs_batching_dimensions = dense<0> : tensor<1xi64>, rhs_contracting_dimensions = dense<1> : tensor<1xi64>}, node_name = "MatMul_8077-0", node_type = "MatMul", op_id = 1182 : i64, unique_name = "dot_general_dtu"} : (tensor<10x4096x64xf16>, tensor<10x64x4096xf16>) -> tensor<10x4096x4096xf16>
    %2273 = "dtu_hlir.fusion"(%267, %2272) ( {
    ^bb0(%arg3: tensor<1xf16>, %arg4: tensor<10x4096x4096xf16>):	// no predecessors
      %2329 = "dtu_hlir.broadcast_in_dim"(%arg3) {broadcast_dimensions = dense<[]> : tensor<0xi64>, node_name = "Mul_438-0_hlir_0", node_type = "Mul"} : (tensor<1xf16>) -> tensor<10x4096x4096xf16>
      %2330 = "dtu_hlir.mul"(%arg4, %2329) {node_name = "Mul_8078-0", node_type = "Mul"} : (tensor<10x4096x4096xf16>, tensor<10x4096x4096xf16>) -> tensor<10x4096x4096xf16>
      "dtu_hlir.return"(%2330) : (tensor<10x4096x4096xf16>) -> ()
    }) {fusion_kind = 1 : i32, fusion_name = "ElementWise", op_id = 1183 : i64, unique_name = "elementwise_fusion_dtu"} : (tensor<1xf16>, tensor<10x4096x4096xf16>) -> tensor<10x4096x4096xf16>
    %2274 = "dtu_hlir.softmax"(%2273) {accurate = true, axis = -1 : i64, epsilon = 0.000000e+00 : f32, logarithmic = false, node_name = "Softmax_8081-0", node_type = "Softmax", op_id = 1184 : i64, unique_name = "common20_softmax"} : (tensor<10x4096x4096xf16>) -> tensor<10x4096x4096xf16>
    %2275 = "dtu_hlir.dot_general"(%2274, %2270) {dot_dimension_numbers = {lhs_batching_dimensions = dense<0> : tensor<1xi64>, lhs_contracting_dimensions = dense<2> : tensor<1xi64>, rhs_batching_dimensions = dense<0> : tensor<1xi64>, rhs_contracting_dimensions = dense<1> : tensor<1xi64>}, node_name = "MatMul_8083-0", node_type = "MatMul", op_id = 1185 : i64, unique_name = "dot_general_dtu"} : (tensor<10x4096x4096xf16>, tensor<10x4096x64xf16>) -> tensor<10x4096x64xf16>
    %2276 = "dtu_hlir.reshape"(%2275) {node_name = "Reshape_8104-0"} : (tensor<10x4096x64xf16>) -> tensor<2x5x4096x64xf16>
    %2277 = "dtu_hlir.transpose"(%2276) {node_name = "Transpose_8105-0", node_type = "Transpose", op_id = 1186 : i64, permutation = dense<[0, 2, 1, 3]> : tensor<4xi64>, unique_name = "transpose_dtu"} : (tensor<2x5x4096x64xf16>) -> tensor<2x4096x5x64xf16>
    %2278 = "dtu_hlir.reshape"(%2277) {node_name = "Reshape_8119-0"} : (tensor<2x4096x5x64xf16>) -> tensor<2x4096x320xf16>
    %2279 = "dtu_hlir.dot_general_bias"(%2278, %448, %226) {dot_dimension_numbers = {lhs_batching_dimensions = dense<0> : tensor<1xi64>, lhs_contracting_dimensions = dense<2> : tensor<1xi64>, rhs_batching_dimensions = dense<[]> : tensor<0xi64>, rhs_contracting_dimensions = dense<0> : tensor<1xi64>}, node_name = "Add_8121-0", op_id = 1187 : i64, unique_name = "dorado_dot_general_bias_dtu"} : (tensor<2x4096x320xf16>, tensor<320x320xf16>, tensor<320xf32>) -> tensor<2x4096x320xf16>
    %2280 = "dtu_hlir.add"(%2279, %2257) {node_name = "Add_8122-0", node_type = "Add", op_id = 1188 : i64, unique_name = "elementwise_add_dtu"} : (tensor<2x4096x320xf16>, tensor<2x4096x320xf16>) -> tensor<2x4096x320xf16>
    %2281 = "dtu_hlir.layer_norm_inference"(%2280, %232, %233) {axis = 2 : i64, epsilon = 9.99999974E-6 : f32, ln_type = 0 : i64, node_name = "Add_8133-0", op_id = 1189 : i64, unique_name = "layer_norm_inference_dtu"} : (tensor<2x4096x320xf16>, tensor<320xf32>, tensor<320xf32>) -> tensor<2x4096x320xf16>
    %2282 = "dtu_hlir.dot_general"(%2281, %449) {dot_dimension_numbers = {lhs_batching_dimensions = dense<0> : tensor<1xi64>, lhs_contracting_dimensions = dense<2> : tensor<1xi64>, rhs_batching_dimensions = dense<[]> : tensor<0xi64>, rhs_contracting_dimensions = dense<0> : tensor<1xi64>}, node_name = "MatMul_8134-0", node_type = "MatMul", op_id = 1190 : i64, unique_name = "dot_general_dtu"} : (tensor<2x4096x320xf16>, tensor<320x320xf16>) -> tensor<2x4096x320xf16>
    %2283 = "dtu_hlir.dot_general"(%4, %450) {dot_dimension_numbers = {lhs_batching_dimensions = dense<0> : tensor<1xi64>, lhs_contracting_dimensions = dense<2> : tensor<1xi64>, rhs_batching_dimensions = dense<[]> : tensor<0xi64>, rhs_contracting_dimensions = dense<0> : tensor<1xi64>}, node_name = "MatMul_8135-0", node_type = "MatMul", op_id = 1191 : i64, unique_name = "dot_general_dtu"} : (tensor<2x77x1024xf16>, tensor<1024x320xf16>) -> tensor<2x77x320xf16>
    %2284 = "dtu_hlir.dot_general"(%4, %451) {dot_dimension_numbers = {lhs_batching_dimensions = dense<0> : tensor<1xi64>, lhs_contracting_dimensions = dense<2> : tensor<1xi64>, rhs_batching_dimensions = dense<[]> : tensor<0xi64>, rhs_contracting_dimensions = dense<0> : tensor<1xi64>}, node_name = "MatMul_8136-0", node_type = "MatMul", op_id = 1192 : i64, unique_name = "dot_general_dtu"} : (tensor<2x77x1024xf16>, tensor<1024x320xf16>) -> tensor<2x77x320xf16>
    %2285 = "dtu_hlir.reshape"(%2282) {node_name = "Reshape_8157-0"} : (tensor<2x4096x320xf16>) -> tensor<2x4096x5x64xf16>
    %2286 = "dtu_hlir.transpose"(%2285) {node_name = "Transpose_8158-0", node_type = "Transpose", op_id = 1193 : i64, permutation = dense<[0, 2, 1, 3]> : tensor<4xi64>, unique_name = "transpose_dtu"} : (tensor<2x4096x5x64xf16>) -> tensor<2x5x4096x64xf16>
    %2287 = "dtu_hlir.reshape"(%2286) {node_name = "Reshape_8172-0"} : (tensor<2x5x4096x64xf16>) -> tensor<10x4096x64xf16>
    %2288 = "dtu_hlir.reshape"(%2283) {node_name = "Reshape_8193-0"} : (tensor<2x77x320xf16>) -> tensor<2x77x5x64xf16>
    %2289 = "dtu_hlir.transpose"(%2288) {node_name = "Transpose_8194-0", node_type = "Transpose", op_id = 1194 : i64, permutation = dense<[0, 2, 1, 3]> : tensor<4xi64>, unique_name = "transpose_dtu"} : (tensor<2x77x5x64xf16>) -> tensor<2x5x77x64xf16>
    %2290 = "dtu_hlir.reshape"(%2289) {node_name = "Reshape_8208-0"} : (tensor<2x5x77x64xf16>) -> tensor<10x77x64xf16>
    %2291 = "dtu_hlir.reshape"(%2284) {node_name = "Reshape_8229-0"} : (tensor<2x77x320xf16>) -> tensor<2x77x5x64xf16>
    %2292 = "dtu_hlir.transpose"(%2291) {node_name = "Transpose_8230-0", node_type = "Transpose", op_id = 1195 : i64, permutation = dense<[0, 2, 1, 3]> : tensor<4xi64>, unique_name = "transpose_dtu"} : (tensor<2x77x5x64xf16>) -> tensor<2x5x77x64xf16>
    %2293 = "dtu_hlir.reshape"(%2292) {node_name = "Reshape_8244-0"} : (tensor<2x5x77x64xf16>) -> tensor<10x77x64xf16>
    %2294 = "dtu_hlir.transpose"(%2290) {node_name = "Transpose_8262-0", node_type = "Transpose", op_id = 1196 : i64, permutation = dense<[0, 2, 1]> : tensor<3xi64>, unique_name = "transpose_dtu"} : (tensor<10x77x64xf16>) -> tensor<10x64x77xf16>
    %2295 = "dtu_hlir.dot_general"(%2287, %2294) {dot_dimension_numbers = {lhs_batching_dimensions = dense<0> : tensor<1xi64>, lhs_contracting_dimensions = dense<2> : tensor<1xi64>, rhs_batching_dimensions = dense<0> : tensor<1xi64>, rhs_contracting_dimensions = dense<1> : tensor<1xi64>}, node_name = "MatMul_8263-0", node_type = "MatMul", op_id = 1197 : i64, unique_name = "dot_general_dtu"} : (tensor<10x4096x64xf16>, tensor<10x64x77xf16>) -> tensor<10x4096x77xf16>
    %2296 = "dtu_hlir.fusion"(%267, %2295) ( {
    ^bb0(%arg3: tensor<1xf16>, %arg4: tensor<10x4096x77xf16>):	// no predecessors
      %2329 = "dtu_hlir.broadcast_in_dim"(%arg3) {broadcast_dimensions = dense<[]> : tensor<0xi64>, node_name = "Mul_624-0_hlir_0", node_type = "Mul"} : (tensor<1xf16>) -> tensor<10x4096x77xf16>
      %2330 = "dtu_hlir.mul"(%arg4, %2329) {node_name = "Mul_8264-0", node_type = "Mul"} : (tensor<10x4096x77xf16>, tensor<10x4096x77xf16>) -> tensor<10x4096x77xf16>
      "dtu_hlir.return"(%2330) : (tensor<10x4096x77xf16>) -> ()
    }) {fusion_kind = 1 : i32, fusion_name = "ElementWise", op_id = 1198 : i64, unique_name = "elementwise_fusion_dtu"} : (tensor<1xf16>, tensor<10x4096x77xf16>) -> tensor<10x4096x77xf16>
    %2297 = "dtu_hlir.softmax"(%2296) {accurate = true, axis = -1 : i64, epsilon = 0.000000e+00 : f32, logarithmic = false, node_name = "Softmax_8267-0", node_type = "Softmax", op_id = 1199 : i64, unique_name = "common20_softmax"} : (tensor<10x4096x77xf16>) -> tensor<10x4096x77xf16>
    %2298 = "dtu_hlir.dot_general"(%2297, %2293) {dot_dimension_numbers = {lhs_batching_dimensions = dense<0> : tensor<1xi64>, lhs_contracting_dimensions = dense<2> : tensor<1xi64>, rhs_batching_dimensions = dense<0> : tensor<1xi64>, rhs_contracting_dimensions = dense<1> : tensor<1xi64>}, node_name = "MatMul_8269-0", node_type = "MatMul", op_id = 1200 : i64, unique_name = "dot_general_dtu"} : (tensor<10x4096x77xf16>, tensor<10x77x64xf16>) -> tensor<10x4096x64xf16>
    %2299 = "dtu_hlir.reshape"(%2298) {node_name = "Reshape_8290-0"} : (tensor<10x4096x64xf16>) -> tensor<2x5x4096x64xf16>
    %2300 = "dtu_hlir.transpose"(%2299) {node_name = "Transpose_8291-0", node_type = "Transpose", op_id = 1201 : i64, permutation = dense<[0, 2, 1, 3]> : tensor<4xi64>, unique_name = "transpose_dtu"} : (tensor<2x5x4096x64xf16>) -> tensor<2x4096x5x64xf16>
    %2301 = "dtu_hlir.reshape"(%2300) {node_name = "Reshape_8305-0"} : (tensor<2x4096x5x64xf16>) -> tensor<2x4096x320xf16>
    %2302 = "dtu_hlir.dot_general_bias"(%2301, %452, %229) {dot_dimension_numbers = {lhs_batching_dimensions = dense<0> : tensor<1xi64>, lhs_contracting_dimensions = dense<2> : tensor<1xi64>, rhs_batching_dimensions = dense<[]> : tensor<0xi64>, rhs_contracting_dimensions = dense<0> : tensor<1xi64>}, node_name = "Add_8307-0", op_id = 1202 : i64, unique_name = "dorado_dot_general_bias_dtu"} : (tensor<2x4096x320xf16>, tensor<320x320xf16>, tensor<320xf32>) -> tensor<2x4096x320xf16>
    %2303 = "dtu_hlir.add"(%2302, %2280) {node_name = "Add_8308-0", node_type = "Add", op_id = 1203 : i64, unique_name = "elementwise_add_dtu"} : (tensor<2x4096x320xf16>, tensor<2x4096x320xf16>) -> tensor<2x4096x320xf16>
    %2304 = "dtu_hlir.layer_norm_inference"(%2303, %234, %235) {axis = 2 : i64, epsilon = 9.99999974E-6 : f32, ln_type = 0 : i64, node_name = "Add_8319-0", op_id = 1204 : i64, unique_name = "layer_norm_inference_dtu"} : (tensor<2x4096x320xf16>, tensor<320xf32>, tensor<320xf32>) -> tensor<2x4096x320xf16>
    %2305 = "dtu_hlir.dot_general_bias"(%2304, %453, %227) {dot_dimension_numbers = {lhs_batching_dimensions = dense<0> : tensor<1xi64>, lhs_contracting_dimensions = dense<2> : tensor<1xi64>, rhs_batching_dimensions = dense<[]> : tensor<0xi64>, rhs_contracting_dimensions = dense<0> : tensor<1xi64>}, node_name = "Add_8321-0", op_id = 1205 : i64, unique_name = "dorado_dot_general_bias_dtu"} : (tensor<2x4096x320xf16>, tensor<320x2560xf16>, tensor<2560xf32>) -> tensor<2x4096x2560xf16>
    %2306 = "dtu_hlir.slice"(%2305) {limit_indices = dense<[2, 4096, 1280]> : tensor<3xi64>, node_name = "Slice_8332-1", op_id = 1206 : i64, start_indices = dense<0> : tensor<3xi64>, strides = dense<1> : tensor<3xi64>, unique_name = "slice_dtu"} : (tensor<2x4096x2560xf16>) -> tensor<2x4096x1280xf16>
    %2307 = "dtu_hlir.slice"(%2305) {limit_indices = dense<[2, 4096, 2560]> : tensor<3xi64>, node_name = "Slice_8335-3", op_id = 1207 : i64, start_indices = dense<[0, 0, 1280]> : tensor<3xi64>, strides = dense<1> : tensor<3xi64>, unique_name = "slice_dtu"} : (tensor<2x4096x2560xf16>) -> tensor<2x4096x1280xf16>
    %2308 = "dtu_hlir.gelu"(%2307) {approximate = false, node_name = "Mul_8343-0", op_id = 1208 : i64, unique_name = "common20_gelu"} : (tensor<2x4096x1280xf16>) -> tensor<2x4096x1280xf16>
    %2309 = "dtu_hlir.mul"(%2306, %2308) {node_name = "Mul_8344-0", node_type = "Mul", op_id = 1209 : i64, unique_name = "elementwise_mul_dtu"} : (tensor<2x4096x1280xf16>, tensor<2x4096x1280xf16>) -> tensor<2x4096x1280xf16>
    %2310 = "dtu_hlir.dot_general_bias"(%2309, %454, %228) {dot_dimension_numbers = {lhs_batching_dimensions = dense<0> : tensor<1xi64>, lhs_contracting_dimensions = dense<2> : tensor<1xi64>, rhs_batching_dimensions = dense<[]> : tensor<0xi64>, rhs_contracting_dimensions = dense<0> : tensor<1xi64>}, node_name = "Add_8346-0", op_id = 1210 : i64, unique_name = "dorado_dot_general_bias_dtu"} : (tensor<2x4096x1280xf16>, tensor<1280x320xf16>, tensor<320xf32>) -> tensor<2x4096x320xf16>
    %2311 = "dtu_hlir.add"(%2310, %2303) {node_name = "Add_8347-0", node_type = "Add", op_id = 1211 : i64, unique_name = "elementwise_add_dtu"} : (tensor<2x4096x320xf16>, tensor<2x4096x320xf16>) -> tensor<2x4096x320xf16>
    %2312 = "dtu_hlir.dot_general_bias"(%2311, %455, %236) {dot_dimension_numbers = {lhs_batching_dimensions = dense<0> : tensor<1xi64>, lhs_contracting_dimensions = dense<2> : tensor<1xi64>, rhs_batching_dimensions = dense<[]> : tensor<0xi64>, rhs_contracting_dimensions = dense<0> : tensor<1xi64>}, node_name = "Add_8349-0", op_id = 1212 : i64, unique_name = "dorado_dot_general_bias_dtu"} : (tensor<2x4096x320xf16>, tensor<320x320xf16>, tensor<320xf32>) -> tensor<2x4096x320xf16>
    %2313 = "dtu_hlir.reshape"(%2312) {node_name = "Reshape_8359-0"} : (tensor<2x4096x320xf16>) -> tensor<2x64x64x320xf16>
    %2314 = "dtu_hlir.add"(%2313, %2245) {node_name = "Add_8361-0", node_type = "Add", op_id = 1213 : i64, unique_name = "elementwise_add_dtu"} : (tensor<2x64x64x320xf16>, tensor<2x64x64x320xf16>) -> tensor<2x64x64x320xf16>
    %2315 = "dtu_hlir.transpose"(%2314) {node_name = "Transpose_8360-0", op_id = 1214 : i64, permutation = dense<[0, 3, 1, 2]> : tensor<4xi64>, unique_name = "transpose_dtu"} : (tensor<2x64x64x320xf16>) -> tensor<2x320x64x64xf16>
    %2316 = "dtu_hlir.reshape"(%2315) {node_name = "Reshape_8363-0"} : (tensor<2x320x64x64xf16>) -> tensor<2x32x40960xf16>
    %2317 = "dtu_hlir.transpose"(%2316) {node_name = "InstanceNormalization_8366-0", op_id = 1215 : i64, permutation = dense<[0, 2, 1]> : tensor<3xi64>, unique_name = "transpose_dtu"} : (tensor<2x32x40960xf16>) -> tensor<2x40960x32xf16>
    %2318 = "dtu_hlir.instance_norm"(%2317, %471, %472) {epsilon = 9.99999974E-6 : f32, layout = {batch_dimension = 0 : i64, feature_dimension = 2 : i64, spatial_dimensions = dense<1> : tensor<1xi64>}, op_id = 1216 : i64, unique_name = "instance_norm_dtu"} : (tensor<2x40960x32xf16>, tensor<32xf32>, tensor<32xf32>) -> tensor<2x40960x32xf16>
    %2319 = "dtu_hlir.transpose"(%2318) {node_name = "InstanceNormalization_8366-0", op_id = 1217 : i64, permutation = dense<[0, 2, 1]> : tensor<3xi64>, unique_name = "transpose_dtu"} : (tensor<2x40960x32xf16>) -> tensor<2x32x40960xf16>
    %2320 = "dtu_hlir.reshape"(%2319) {node_name = "Reshape_8368-0"} : (tensor<2x32x40960xf16>) -> tensor<2x320x64x64xf16>
    %2321 = dtu_hlir.constant  {node_name = "Mul_8369-0"} opaque<"", "0xDEADBEEF"> : tensor<2x320xf16>
    %2322 = dtu_hlir.constant  {node_name = "Add_8370-0"} opaque<"", "0xDEADBEEF"> : tensor<2x320xf16>
    %2323 = "dtu_hlir.fusion"(%2321, %2320, %2322) ( {
    ^bb0(%arg3: tensor<2x320xf16>, %arg4: tensor<2x320x64x64xf16>, %arg5: tensor<2x320xf16>):	// no predecessors
      %2329 = "dtu_hlir.broadcast_in_dim"(%arg3) {broadcast_dimensions = dense<[0, 1]> : tensor<2xi64>, node_name = "Mul_8369-0"} : (tensor<2x320xf16>) -> tensor<2x320x64x64xf16>
      %2330 = "dtu_hlir.mul"(%arg4, %2329) {node_name = "Mul_8369-0", node_type = "Mul"} : (tensor<2x320x64x64xf16>, tensor<2x320x64x64xf16>) -> tensor<2x320x64x64xf16>
      %2331 = "dtu_hlir.broadcast_in_dim"(%arg5) {broadcast_dimensions = dense<[0, 1]> : tensor<2xi64>, node_name = "Add_8370-0"} : (tensor<2x320xf16>) -> tensor<2x320x64x64xf16>
      %2332 = "dtu_hlir.add"(%2330, %2331) {node_name = "Add_8370-0", node_type = "Add"} : (tensor<2x320x64x64xf16>, tensor<2x320x64x64xf16>) -> tensor<2x320x64x64xf16>
      %2333 = "dtu_hlir.swish"(%2332) {node_name = "Mul_8372-0"} : (tensor<2x320x64x64xf16>) -> tensor<2x320x64x64xf16>
      "dtu_hlir.return"(%2333) : (tensor<2x320x64x64xf16>) -> ()
    }) {fusion_kind = 1 : i32, fusion_name = "ElementWise", op_id = 1218 : i64, unique_name = "elementwise_fusion_dtu"} : (tensor<2x320xf16>, tensor<2x320x64x64xf16>, tensor<2x320xf16>) -> tensor<2x320x64x64xf16>
    %2324 = "dtu_hlir.transpose"(%2323) {node_name = "Conv_8373-0", op_id = 1219 : i64, permutation = dense<[0, 2, 3, 1]> : tensor<4xi64>, unique_name = "transpose_dtu"} : (tensor<2x320x64x64xf16>) -> tensor<2x64x64x320xf16>
    %2325 = dtu_hlir.constant  {node_name = "conv_out.weight"} opaque<"", "0xDEADBEEF"> : tensor<3x3x320x4xf16>
    %2326 = "dtu_hlir.conv_bias"(%2324, %2325, %262) {batch_group_count = 1 : i64, dimension_numbers = {input_batch_dimension = 0 : i64, input_feature_dimension = 3 : i64, input_spatial_dimensions = dense<[1, 2]> : vector<2xi64>, kernel_input_feature_dimension = 2 : i64, kernel_output_feature_dimension = 3 : i64, kernel_spatial_dimensions = dense<[0, 1]> : vector<2xi64>, output_batch_dimension = 0 : i64, output_feature_dimension = 3 : i64, output_spatial_dimensions = dense<[1, 2]> : vector<2xi64>}, feature_group_count = 1 : i64, lhs_dilation = dense<1> : tensor<2xi64>, node_name = "Conv_8373-0", op_id = 1220 : i64, padding = dense<1> : tensor<4xi64>, rhs_dilation = dense<1> : tensor<2xi64>, unique_name = "dorado_dtu_conv_bias_dtu", window_strides = dense<1> : tensor<2xi64>} : (tensor<2x64x64x320xf16>, tensor<3x3x320x4xf16>, tensor<4xf32>) -> tensor<2x64x64x4xf16>
    %2327 = "dtu_hlir.transpose"(%2326) {node_name = "Conv_8373-0", op_id = 1221 : i64, permutation = dense<[0, 3, 1, 2]> : tensor<4xi64>, unique_name = "transpose_dtu"} : (tensor<2x64x64x4xf16>) -> tensor<2x4x64x64xf16>
    %2328 = "dtu_hlir.convert"(%2327) {gen_loc = "hlir_quantization", op_id = 1222 : i64, unique_name = "common20_convert"} : (tensor<2x4x64x64xf16>) -> tensor<2x4x64x64xf32>
    "dtu_hlir.tensor_attr"(%2328) {dynamic_flag = "positive", max_shape = dense<[2, 4, 64, 64]> : tensor<4xi64>, min_shape = dense<[2, 4, 64, 64]> : tensor<4xi64>, table_index = dense<3> : tensor<1xi64>} : (tensor<2x4x64x64xf32>) -> ()
    return %2328 : tensor<2x4x64x64xf32>
  }
}

